checkpoints/model_75.pt (torch, 103825 bytes, 12 tensors)

0.weight f4 [4, 2, 3, 3]
000000 bb 43 97 3d 7a 99 56 3e 0e d4 90 3d de 7f 34 3e
       0.073859654 0.20956984 0.07071696 0.17626902
000010 fa ed fd bc 6c 5b 2e 3e 25 db 51 bb 28 9c d9 3d
       -0.030997265 0.17027062 -0.003202149 0.106254876
000020 bf 1f 43 3e 70 22 37 3e 18 5d 27 be 22 6b 27 be
       0.19055079 0.1788423 -0.16344106 -0.16349462
000030 7e a9 08 be 29 cf a3 3d 53 b4 10 3d 23 bc 2b 3e
       -0.13345906 0.07998497 0.03532822 0.16770987
000040 5a 55 57 3e a5 4e e9 bd 26 af bf 3c be 08 c5 3d
       0.21028653 -0.113919534 0.023398947 0.09620808
000050 68 66 23 be 5f 49 0f bd c1 ff 48 3e ef 83 0a be
       -0.15957034 -0.03498208 0.19628812 -0.13526891
000060 ab d4 c6 bd db 7f 6d 3e 9f 5b 18 be 92 7c 0c be
       -0.09708532 0.23193304 -0.148787 -0.13719395
000070 1e 4c 19 be c5 3a 23 3e 8a 92 1f 3e c2 fe 31 be
       -0.14970443 0.15940388 0.15583244 -0.17382339
000080 05 26 73 3d b4 b1 8a bd 78 a5 e1 bd d6 ce 3b 3e
       0.05936243 -0.067721754 -0.11017889 0.1834062
000090 6b 4f 5c be 7d 0a 84 bd 9a f6 56 be 46 03 33 be
       -0.2151467 -0.06447313 -0.20992509 -0.17481717
0000a0 43 c9 a7 3d df 25 ac 3d 35 92 bb bd 66 54 2e 3d
       0.081926845 0.08405661 -0.09158746 0.042560957
0000b0 30 4a ca 3d 6a aa 3f be 74 ca 2e be 55 7a 01 3e
       0.098774314 -0.18717352 -0.17069417 0.12644322
0000c0 4a 71 53 3e f0 66 32 3e 98 b1 b1 3a 44 8b dd 3c
       0.20648685 0.1742208 0.0013556955 0.027043946
0000d0 ee e8 3e be e1 46 45 3e 6d 84 06 be bb 9a 15 be
       -0.18643543 0.1926532 -0.13136454 -0.14609806
0000e0 73 58 71 be 56 62 29 be 28 8a 34 be f0 05 1c be
       -0.23568897 -0.16541418 -0.17630827 -0.1523664
0000f0 c4 f3 31 3d d3 a2 46 3e db 9a de bd 73 89 2a 3d
       0.043445364 0.1939805 -0.1086938 0.041634988
000100 81 b8 5e 3e 99 c2 64 be ac 4f 48 3e ea 35 c8 bd
       0.2175007 -0.22339858 0.19561642 -0.09775908
000110 f8 0d 5c be 49 55 b1 3d 16 f4 59 be 65 76 00 3e
       -0.21489704 0.08658845 -0.21284518 0.12545164

0.bias f4 [4]
000000 42 3e 4b 3e fd e0 71 3d 19 a5 67 bd ab 32 88 bd
       0.19847968 0.059052456 -0.056553934 -0.06650289

2.weight f4 [8, 4, 3, 3]
000000 eb 82 aa 3c ef bc 04 3e ab c7 77 bb f8 f3 85 3d
       0.02081438 0.12962697 -0.003780822 0.06540674
000010 ab ac 46 3d 4c 64 18 3e 40 b0 a1 3d bb d2 b1 bd
       0.048504513 0.1488201 0.07894945 -0.08682772
000020 4b 32 96 bc 3b 0a ce 3d d6 c2 2b bc 76 2d b4 3d
       -0.018334528 0.10060545 -0.010483464 0.087977335
000030 76 85 ae bc ab f2 51 ba 46 c2 71 bd 16 68 5c 3d
       -0.021303874 -0.00080088776 -0.059023164 0.0538102
000040 16 0e 7f bd c0 4f 96 3c 33 ec a7 bd 56 2e cf bb
       -0.062269293 0.018348575 -0.08199348 -0.0063226623
000050 56 96 3c bc fe fd 80 3d fb e9 bd 3d 5b fd 4f bd
       -0.011510452 0.06298445 0.09273144 -0.050778728
000060 4b da 07 3e 9b 21 ea bd 20 3f cc 3c 2c 31 1e 3e
       0.13266866 -0.11432191 0.024932444 0.15448445
000070 b8 79 1d be 38 c9 e6 bd 2e 1a c8 3d 9b 63 dc 3d
       -0.15378463 -0.11268848 0.097706184 0.10761186
000080 64 c3 28 be b6 ba 46 bd 70 fc 9d 3d ab ae ba 3d
       -0.16480786 -0.048517905 0.07714164 0.091153465
000090 40 85 be 3c 2b d9 4d bd d0 9b b4 bd ae e0 a9 3d
       0.023256898 -0.050255936 -0.088187814 0.082948074
0000a0 cb 60 9d bd 06 16 81 bd 96 0c e9 bd 56 89 ce bc
       -0.076844774 -0.06303029 -0.11379354 -0.025211971
0000b0 56 4b 44 3b d2 f7 22 3e 00 80 5b b9 d3 5b 87 3d
       0.002995213 0.15914848 -0.00020933151 0.06609311
0000c0 e6 01 44 3d b6 39 f0 3c 14 67 0c 3e de eb 1a be
       0.047853373 0.029324394 0.13711196 -0.15129039
0000d0 48 cb e3 bd 56 57 52 3b 93 9d db 3d f0 9d 18 be
       -0.11122757 0.0032095513 0.10723414 -0.14903998
0000e0 00 42 5f bb f6 e5 e4 3c ae 19 f1 3d 2a 1d 02 be
       -0.0034066439 0.027941685 0.11772476 -0.12706438
0000f0 2a 62 24 3e d6 06 b2 3c 6f ce 1c be 60 ae 72 3d
       0.16053072 0.021731775 -0.15313123 0.05924833
000100 23 10 c9 bd db 9f 86 3d ce 5f 8a bd f0 53 e0 3d
       -0.09817531 0.06573459 -0.067565545 0.1095351
000110 5b 03 2e bd d6 d1 3b bc e0 78 12 bd 4b c0 fe 3c
       -0.04248367 -0.011463603 -0.035759807 0.031097552
000120 38 09 f8 3d f8 31 e9 3d 16 d8 fd bc ce f0 cf bd
       0.12111133 0.11386484 -0.030986827 -0.10153352
000130 28 56 a6 bd a2 f8 10 3e 7e 0a fd 3d 60 6b 7d 3d
       -0.08121902 0.14157346 0.12355517 0.06186998
000140 a0 be 25 be 58 27 b5 bd 58 84 e3 bd 00 c2 ac bd
       -0.16185999 -0.08845395 -0.11109227 -0.0843544
000150 ab d2 9b 3a 5c 73 1f 3e 32 26 29 be db f8 dc bd
       0.0011888345 0.1557135 -0.16518477 -0.10789653
000160 f6 87 fb 3d 5b e4 52 3d 8b f6 8e bc cb db 23 3d
       0.12281792 0.051487308 -0.017451545 0.040004533
000170 f0 90 7e bd 28 3c d8 3d 08 6f 8e 3d a6 70 2a 3d
       -0.062149942 0.10558349 0.06954771 0.041611336
000180 07 c9 17 be eb 39 14 3e 4b 24 e7 3d d8 71 dc 3d
       -0.1482278 0.14475219 0.11286219 0.107639015
000190 13 47 8a bd 8f ad 0a be ab 43 21 3d a6 96 aa 3d
       -0.067518376 -0.1354277 0.039371174 0.08329515
0001a0 c0 06 34 bc 53 ad b1 bd 0b 66 26 be 96 7e 34 bc
       -0.010987937 -0.08675637 -0.16249864 -0.011016509
0001b0 33 81 1d 3e c0 65 b9 bc 1e c0 bd 3d 26 a9 0a bd
       0.15381317 -0.022631526 0.09265159 -0.03385272
0001c0 88 db f9 3d 90 df c4 bd e0 2e 05 be cb 01 a7 bc
       0.122000754 -0.09612954 -0.13006163 -0.020386597
0001d0 a0 21 a3 3d a8 e6 23 be e6 92 a4 3d 56 7e fd bd
       0.07965398 -0.16005957 0.08035831 -0.12377612
0001e0 4b e8 03 3e 96 9d f7 bd 56 b8 5a 3d 5c cb 0a be
       0.12881581 -0.12090604 0.053398453 -0.13554138
0001f0 f3 5c 0f be ce 11 26 be 53 4e 93 3d 1a 18 0d be
       -0.14000301 -0.1621773 0.071926735 -0.13778725
000200 d8 27 ee bd 36 4c dc 3d 96 df a4 bd e8 86 91 bd
       -0.11628693 0.107567236 -0.08050458 -0.071058095
000210 d6 0f d9 bd 86 73 1c 3d c0 ae 90 bc 67 e9 1b be
       -0.105987236 0.03819611 -0.017661452 -0.15225755
000220 46 a5 7c bd 60 1a c1 3d 78 04 20 3e 6b 5d de 3c
       -0.061681055 0.09428859 0.15626705 0.027144155
000230 36 26 0b be c3 51 b1 3d fb d0 4b 3d 9b 4b db bd
       -0.13588795 0.08658173 0.049759846 -0.1070778
000240 53 ef b4 3d 8b ba 3a 3d db 47 4a bd 60 7b 5b 3d
       0.0883471 0.045588057 -0.049384933 0.053584456
000250 fa ab 0c 3e 06 c6 3d bd c6 d5 ec 3d be 9b 07 be
       0.13737479 -0.046331428 0.115642115 -0.13243005
000260 3b b8 5b 3d 38 99 af 3d b6 e0 fc bc 96 2f e2 bd
       0.053642493 0.08574146 -0.03086887 -0.110442325
000270 8b dc cc bd c6 99 71 3d 06 fd 4a bd 96 78 39 bd
       -0.10003003 0.05898454 -0.04955771 -0.045281015
000280 0b f6 ff 3d cb a4 09 3d ea d8 0b 3e a0 50 cf bd
       0.12498101 0.033604424 0.13656965 -0.101228
000290 60 d7 3a bd 60 8e 91 3c a3 b4 f4 3d 36 f7 53 bd
       -0.045615554 0.017768085 0.11948516 -0.05174943
0002a0 7f 94 14 3e 30 96 51 bd cb 3e d9 3c 6b 1a 81 bc
       0.14509772 -0.05116862 0.0265192 -0.015759667
0002b0 cb a1 ce 3d 88 25 f3 bd 33 bb d9 3d 90 d1 22 bd
       0.10089453 -0.11872393 0.106314085 -0.039750636
0002c0 56 d6 cd bb de b6 9c bd 93 f2 ad bd eb c2 87 bc
       -0.0062816544 -0.07652067 -0.08493533 -0.016572436
0002d0 5b dc 21 3e 58 5a 0d 3e 9b 98 ff 3d bb 91 97 3d
       0.15806715 0.13803995 0.12480279 0.07400843
0002e0 a0 97 65 bd 06 eb 98 bd 80 d0 0e bc 66 cd 99 bd
       -0.056052804 -0.07466702 -0.008716702 -0.0750988
0002f0 00 c7 0b 3d 00 e0 73 3b 53 bf d8 3d ab 10 a6 3a
       0.034125328 0.0037212372 0.10583367 0.0012669762
000300 26 9c 34 3d 8b 27 df bc 56 6c d3 3c 18 16 82 bd
       0.044094227 -0.027240535 0.025808495 -0.0635187
000310 d6 28 77 bc 76 b6 36 3d 38 c5 b3 3d d6 fb dc 3b
       -0.01508542 0.044607602 0.08777851 0.0067438884
000320 50 5d 0e bd 10 3b ca bd 26 11 eb 3d 86 28 e1 bd
       -0.03475696 -0.098745465 0.1147788 -0.10994057
000330 f3 59 81 3d 60 1e 19 3e 0b 8b 42 bd 40 c7 f7 bc
       0.063159846 0.14952993 -0.047495883 -0.030246377
000340 06 5d 82 3d ab ac 8c bb 60 5e d4 3d 58 3d 9f 3d
       0.06365399 -0.0042930446 0.10369563 0.07775372
000350 d6 34 59 3d 50 ef 7a bd e6 6a ae bd 56 05 87 bc
       0.053028904 -0.061263382 -0.08516483 -0.016482037
000360 b0 cf a8 3d 70 12 c3 3d 88 ba 03 be ab 6e a1 3c
       0.08242738 0.09525001 -0.12864125 0.01970609
000370 5b e1 e3 3d 46 ca 53 3d c3 94 e5 3d 6b 91 16 bc
       0.111269675 0.051706575 0.11210015 -0.009189944
000380 d7 06 27 3e f7 8c 02 3e 28 2a ab bd 70 b7 16 bd
       0.16311203 0.12749086 -0.0835765 -0.036796033
000390 00 c1 7e bd b8 cd b9 3d be df 23 3e 32 c8 02 be
       -0.062195778 0.09072441 0.1600332 -0.12771681
0003a0 4b 46 68 3d f0 ab 66 3d 56 a8 bd 3b eb 20 85 bd
       0.05670766 0.056316316 0.0057878895 -0.06500419
0003b0 ce 68 9c bd 8b b6 b2 bc 5e 33 84 bd de e4 b4 bd
       -0.076371774 -0.021815559 -0.0645511 -0.088327155
0003c0 23 eb a2 3d b8 5d d9 3d 18 44 d7 bd d3 02 b4 3d
       0.07955005 0.106135786 -0.10511035 0.08789601
0003d0 74 a4 0f be ab a1 8e bb a8 a7 f8 3d 0e 65 bb 3d
       -0.14027578 -0.0043527684 0.12141353 0.09150134
0003e0 c6 59 8d 3d eb 74 a6 bc 20 7b 59 3d b8 3c 8d 3d
       0.069018885 -0.020319423 0.053095937 0.06896347
0003f0 6b a0 8c bc 3e 89 1c be ab e4 d0 3d d6 01 d1 3c
       -0.017166337 -0.15286729 0.10199865 0.02551357

2.bias f4 [8]
000000 80 17 53 bc a0 c5 d8 bd 43 81 84 bd 76 70 e1 3c
       -0.012884021 -0.10584569 -0.06469967 0.027519446
000010 ac 95 04 3e f2 a3 06 be eb 68 36 bc fe f5 bd bd
       0.1294772 -0.13148478 -0.011133413 -0.09275435

4.weight f4 [16, 8, 3, 3]
000000 9e da 82 3d ff 8a b1 bd fb f2 65 3d 98 90 ba bd
       0.06389354 -0.086690895 0.056139927 -0.0910961
000010 b2 ec 9c 3d 28 86 86 bd 5e b5 96 3d ee 81 a0 bd
       0.076623335 -0.06568557 0.07358812 -0.07837282
000020 a6 61 e9 bd e5 42 91 bc 12 95 b0 3d a0 23 97 bd
       -0.11395578 -0.017732093 0.08622183 -0.07379842
000030 da 00 b7 bd 2f c0 ec bd ea 56 3c 3d af 77 fd bc
       -0.08935709 -0.115600936 0.045981325 -0.030940859
000040 b8 51 5a ba 54 c3 b4 bd 64 dd f0 3c 54 6d 6f 3d
       -0.0008328217 -0.088263184 0.029402442 0.058453873
000050 4e 7f 5d 3d e0 f4 9e 3c 3e 8a a1 bd 8d 00 d7 3d
       0.054076485 0.019403875 -0.07887696 0.10498152
000060 20 bd a9 3d dd 5d d9 bd 33 16 58 3c 02 1b a2 3d
       0.08288026 -0.10613606 0.013188886 0.079153076
000070 7c 21 92 3b 79 9c 32 bd e3 a8 c9 bd ad 2e e5 bd
       0.004459558 -0.043606255 -0.09846666 -0.11190543
000080 97 fb ad bd 1b 17 23 3d 76 ad de 3d 3a 58 bb 3d
       -0.084952526 0.039816957 0.10872929 0.09147687
000090 b4 e5 c1 3d e0 39 e4 ba 2f 0b d9 3d b2 79 6d 3d
       0.094676405 -0.0017412268 0.10597836 0.057977386
0000a0 d7 98 1a bd df d2 8a bd 2d 87 95 bd 5d 2b dc bb
       -0.037743416 -0.06778502 -0.07301173 -0.0067190365
0000b0 c1 be a6 3d fb f4 97 bd 77 79 d9 3b a7 00 e4 3d
       0.08141852 -0.07419773 0.006636794 0.11132937
0000c0 1c 74 5d bd 8a 7e a8 3d 74 f8 ae 3d 10 dc 1b 3d
       -0.05406581 0.082272604 0.085434824 0.038051665
0000d0 2f 09 94 3d f6 96 08 3c 71 f3 e7 bd 31 76 e6 3d
       0.07228314 0.008336773 -0.1132573 0.11253012
0000e0 8d cb 96 3d 27 52 7f bd ff 15 5f bd 7f f5 11 bd
       0.07363043 -0.062334206 -0.054464336 -0.035634514
0000f0 c2 cb 3f 3d 9e f7 e5 bc dc 59 0a 3c df 11 44 3d
       0.046825178 -0.028072175 0.008444276 0.047868606
000100 73 a6 83 3d 38 11 9f bb 80 03 82 bd d6 62 8c 3d
       0.06428232 -0.0048543476 -0.06348324 0.06854789
000110 8b 5b 96 bd 88 90 12 3d a6 20 0d 3d ed 1d 9c bd
       -0.07341679 0.035782367 0.034454964 -0.076228954
000120 2b 60 ed 3c 57 06 d4 bd c1 06 80 3d c2 60 4a bd
       0.02897652 -0.10352772 0.06251288 -0.04940868
000130 8d c8 48 bd 8e 7a 5a 3d 3e 2e 49 bc 64 74 e4 bc
       -0.049019385 0.053339534 -0.012279091 -0.02788753
000140 a0 5e d4 3d 1b c3 22 bd 71 36 6a 3d 49 68 4b bb
       0.10369611 -0.03973685 0.057180826 -0.00310375
000150 12 4b 2e bd f5 b3 a0 3d 84 e3 ef bb d0 a8 e5 bd
       -0.04255206 0.07846824 -0.007320823 -0.11213839
000160 b2 36 aa bd fc f5 34 bd b4 2f ed bc a9 9d d0 bd
       -0.083112136 -0.0441799 -0.02895341 -0.10186321
000170 04 63 9c bd 55 0f e4 3d 2a e0 af bd ef 23 e8 bd
       -0.07636073 0.11135737 -0.08587678 -0.11334979
000180 72 b0 bf bd c2 19 8b 3d 67 5d 0e bc 59 2f ce 3d
       -0.09359826 0.06792022 -0.008689261 0.100676246
000190 6f 70 5a bd ef ac 85 3c f1 15 bf 3d ec c9 c3 bd
       -0.05332988 0.016317813 0.09330357 -0.09559998
0001a0 bb a9 4e bb 40 6c dc bd 6a 08 ca 3d e6 dd 58 3d
       -0.0031534273 -0.107628345 0.09864886 0.052945994
0001b0 d6 f2 8c 3c ca 0c fc 3c 8e c4 0f bd be 4f 89 bd
       0.017205637 0.030767817 -0.03509956 -0.06704663
0001c0 3f 35 53 3d d5 4c de bd 29 85 b3 bd 39 16 62 bc
       0.05156445 -0.10854498 -0.08765633 -0.013799244
0001d0 77 9f bb bd a1 3c f0 3d 02 41 9b bd 14 75 8e 3d
       -0.09161275 0.11730314 -0.07580759 0.06955925
0001e0 3a f2 84 3c bb 02 bf 3c 80 0c ab 3c 5e ce 2c bd
       0.016228784 0.023316732 0.020879984 -0.042188995
0001f0 a1 52 2e bd d7 f7 42 bc 72 bb cc 3d e5 6f 97 3d
       -0.04255927 -0.01189991 0.0999669 0.07394389
000200 b7 bd 8a bd 65 f4 36 3c cc ae 89 3b 41 cc a1 bc
       -0.067744665 0.011166667 0.0042017456 -0.019750716
000210 04 84 01 bd ad a9 80 bd 6b 47 8b 3d 36 84 c8 bd
       -0.03162004 -0.06282363 0.06800731 -0.09790842
000220 b8 e4 c3 3d 95 21 c3 3d ee 0c a2 bd 9c 0c de 3d
       0.09565109 0.0952789 -0.079126224 0.10842249
000230 46 fa e6 3b 84 9d df bd 55 2c 30 bc 3b f1 a5 3d
       0.007048878 -0.109187156 -0.010752757 0.08102652
000240 85 79 13 3d 18 d9 bd bd dd ba e0 3d f0 bd be bc
       0.036004562 -0.09269923 0.10973141 -0.023283929
000250 49 72 7a bd 26 bd 6c 3d 85 c1 01 bd 1f 9e ca bd
       -0.061144147 0.057797574 -0.031678695 -0.098934405
000260 8b e3 bc 3d b6 b6 d7 bd 48 79 7a 3d 26 75 af 3d
       0.09223088 -0.10532896 0.06115082 0.08567266
000270 02 57 29 3d eb ae 2c 3d d2 26 c4 bd c2 e6 e8 bd
       0.041342743 0.042159002 -0.09577717 -0.113721386
000280 98 e8 ca 3d a2 33 84 bd dc 7a c3 bd e6 4d de 3d
       0.09907645 -0.06455161 -0.09544918 0.10854702
000290 83 d7 cc bb 4c 1c 8a 3d 27 67 89 bd cb 76 26 bc
       -0.006251277 0.067436785 -0.06709128 -0.010160158
0002a0 5b 3e 34 bd 1d e6 71 3c 3d b8 1d bd 4c 46 2e bd
       -0.04400478 0.014764336 -0.03850578 -0.04254751
0002b0 d9 21 47 3d aa 94 ae bd 5c bd a8 3d d3 4a d9 3c
       0.048616264 -0.08524449 0.082392424 0.026524937
0002c0 a1 4c c0 3c 81 e1 2c 3d 09 ab 8a bd cc 6d eb bd
       0.02347404 0.042207245 -0.067709036 -0.114955515
0002d0 20 a4 88 bd 1c e7 e0 bb 73 fc 17 3d 0c 80 75 3d
       -0.06671929 -0.006863488 0.03710599 0.05993657
0002e0 d6 7d f0 3d 22 4f 03 3d 56 65 ef bd b7 d3 dc 3d
       0.11742751 0.03205789 -0.1168925 0.10782569
0002f0 36 2b a1 bc da 7c af bd c4 a7 c8 3d 3e 67 c4 bd
       -0.019673925 -0.085687354 0.09797624 -0.095900044
000300 32 16 ac 3c 35 34 d0 bd d3 f1 d4 bd 7b f5 e0 3d
       0.021006677 -0.10166208 -0.10397687 0.10984322
000310 80 45 83 3d 7b 9b 7d 3c f9 63 d3 bc 70 40 3c bd
       0.064097404 0.015478964 -0.025804507 -0.04595989
000320 cf 8c b1 3d 8a 49 1f 3d fc a9 87 bd bc 96 6d 3d
       0.08669435 0.03888849 -0.06624219 0.05800508
000330 a2 fe 8f bd 52 70 b1 3d 3f e0 4c bd 39 46 86 bd
       -0.07030989 0.086640015 -0.050018545 -0.06556363
000340 df 9d 8f bc 67 65 5b bd e2 fa ab bc 95 a3 80 3c
       -0.017531333 -0.0535635 -0.020993654 0.015703002
000350 eb 1d 20 3c a8 ad 9b bc 2c 11 c0 3d d3 de 57 bd
       0.009772758 -0.019003704 0.09378275 -0.052702736
000360 18 5f a4 bd b1 a1 c3 3d 8c a8 e7 bd 7b 02 d4 bc
       -0.0802595 0.095523246 -0.11311445 -0.025880089
000370 09 e7 1a bd 97 f2 ed 3d ac 75 91 bd 18 b1 32 3a
       -0.03781799 0.11618536 -0.07102522 0.000681655
000380 fa 48 bb bd f9 15 38 3d 71 08 bb bb ff 0c 28 3d
       -0.091447785 0.04494283 -0.0057077934 0.04102802
000390 6b 04 eb 3d eb f3 e3 3d 77 3d 9c bc 8a bf b9 bd
       0.11475452 0.11130508 -0.019072277 -0.09069736
0003a0 d8 75 b2 bd b2 1e c0 3c b6 e4 3e 3d a2 8d ad 3d
       -0.08713883 0.023452137 0.046604834 0.0847428
0003b0 3d 61 e4 3c 08 f4 cd bd 10 32 ac 3d 32 04 d6 bc
       0.027878398 -0.10056311 0.08407986 -0.026125047
0003c0 16 26 3e 3d fe 89 6e bd e4 33 7e 3d 74 43 11 bd
       0.04642304 -0.05823707 0.062061206 -0.03546472
0003d0 67 15 e5 3c 4b 48 70 bd b8 91 41 3d 31 55 e6 bd
       0.027964307 -0.058662694 0.04725811 -0.11246718
0003e0 8f 47 1c 3d 98 73 09 3d 9c 09 ee 3c df 86 f5 3c
       0.03815418 0.033557504 0.029057316 0.029971538
0003f0 9c b6 42 3d cd a0 b8 bd e0 5e 59 bd 9f c9 24 bd
       0.04753743 -0.09015045 -0.053068995 -0.040231343

4.bias f4 [16]
000000 47 31 e2 3d 88 76 e4 bd 87 1e 7c bd 60 53 9d 3d
       0.11044555 -0.111554205 -0.06155255 0.07681918
000010 2b 05 e5 3b cf a9 bb 3d 1c 80 15 bd 47 e9 70 3d
       0.0069891415 0.09163248 -0.036499128 0.05881622
000020 2c 3e a2 bd 4f 2a 2e 3d 7d cb 1a bd 25 c5 a1 3d
       -0.079220146 0.042520817 -0.037791718 0.078989305
000030 46 59 c3 bc 64 03 51 3d 0e 18 79 3d 39 46 eb bd
       -0.02384628 0.051028624 0.060813956 -0.11488003

6.weight f4 [32, 16, 3, 3]
000000 b3 69 9b 3d 16 40 e6 bc 62 4a 97 bd c0 12 b4 3c
       0.0758852 -0.02810673 -0.07387234 0.021981597
000010 08 f4 4a 3d eb 4e 35 3c 4e c7 06 bd de ed 71 bd
       0.049549133 0.011066179 -0.032904916 -0.05906474
000020 e0 35 6d bd db 09 d3 bc 9e 01 87 3d 1e d9 57 3d
       -0.057912707 -0.025761535 0.06592105 0.052697293
000030 cb 48 a9 3c d6 1d 57 3c c4 4e 82 3d 30 25 e3 3c
       0.020664593 0.013129672 0.063626796 0.027727693
000040 36 38 b9 bc 2b 03 ba 3c 8b 0c 0b 3c ab ce ba bb
       -0.022609811 0.022706589 0.008486877 -0.0057009063
000050 6e fb 0d bd 1b 1b be bc 00 6a 41 ba 30 68 23 3d
       -0.03466361 -0.023206284 -0.0007378161 0.039894283
000060 40 09 78 3d 78 27 0e bd 2e ea 80 bd ac 62 a4 3d
       0.060555696 -0.03470561 -0.06294666 0.08026633
000070 56 ee 44 3b bb 52 58 3d 6b 91 80 bb b0 96 97 bd
       0.0030049286 0.052813273 -0.003923585 -0.07401788
000080 18 0d 0d 3d 50 07 5e 3d e0 bc 7b bd 6b fa bb 3c
       0.034436315 0.054206192 -0.061459422 0.022946557
000090 cb 37 2b bd ab 2e fc 39 e8 88 9f bd eb 7e d4 bc
       -0.041801255 0.00048099956 -0.07789785 -0.025939425
0000a0 f6 f6 28 bc ab 65 55 3d eb d5 ce 3b 80 99 19 3d
       -0.010312786 0.05209891 0.006312122 0.037499905
0000b0 16 35 8a 3d 6a 56 80 3d db 67 92 bd 26 dc c7 3c
       0.067484066 0.06266482 -0.07148715 0.024396967
0000c0 08 50 85 3d 30 71 37 3d a0 cb 1b 3c eb 01 62 3d
       0.065094054 0.04478568 0.009508997 0.05517761
0000d0 70 2b e2 bc 00 82 27 bd 3b cd 99 bd cb 34 51 3d
       -0.027608603 -0.040895462 -0.07509848 0.051075738
0000e0 1b 16 41 3d e6 92 52 3d 70 63 2b 3d 40 da 54 bc
       0.047140222 0.051409625 0.041842878 -0.012991488
0000f0 80 78 1f bd 6e b5 53 3d c0 37 91 bb f6 32 3b bc
       -0.038933277 0.051686697 -0.0044316947 -0.011425724
000100 ca bb a9 bd 16 72 f5 bc 26 ec 5f 3d 86 2a 8d bc
       -0.08287771 -0.029961627 0.054668568 -0.01723219
000110 56 e1 a9 3b 1e 60 27 3d 36 d9 4f 3d de 6e 9b 3d
       0.005184333 0.04086315 0.050744258 0.075895056
000120 ab 1a 2a 39 26 fb 18 3d 56 3c a3 3d 08 35 9c bd
       0.00016222398 0.03734889 0.079704925 -0.076273024
000130 90 2d c9 bc 56 8f a9 3c fb a8 a7 3d df b1 92 bd
       -0.024557859 0.02069823 0.08186527 -0.071628325
000140 d6 31 95 bb 1c 60 8d 3d de d8 18 bd a4 0a a7 bd
       -0.00455306 0.06903097 -0.037316196 -0.081563264
000150 20 ae 66 3d ab 11 6f 3d 6b dd ed bb 80 4a 24 bd
       0.056318402 0.05836646 -0.007259061 -0.04011011
000160 bb 35 d3 bc 76 16 38 bd b8 93 a3 3d 56 ac c6 3b
       -0.025782457 -0.044943295 0.079871595 0.0060630245
000170 36 79 04 3c 7b 46 7d bd b6 0d 12 bd c3 8c 66 bd
       0.00808554 -0.061834794 -0.035657607 -0.056286585
000180 e3 74 1f bd 0e 2c 47 bd 80 30 08 3d 7e a6 01 3d
       -0.03892983 -0.048626 0.03324938 0.03165292
000190 76 00 55 bc a0 3e db bc e7 5a 9c 3d f6 2e 62 bd
       -0.013000598 -0.02676326 0.07634526 -0.055220567
0001a0 6b 53 cb 3c 60 59 9f 3d 30 27 f8 3c 56 07 a0 3d
       0.02482005 0.07780719 0.030292124 0.07813899
0001b0 d7 3a a7 3d eb 7f c7 bc 0b c6 2e 3d 2b 4a 71 3d
       0.0816552 -0.024352988 0.042669337 0.058908623
0001c0 bf 49 9c 3d 40 f2 88 bc 40 43 f2 3b 2b b9 2c bb
       0.076312535 -0.016717076 0.0073932707 -0.0026355486
0001d0 ab 48 42 bd 18 f2 79 3d 56 e0 6d bb e6 64 e8 bc
       -0.047432583 0.061021894 -0.0036297045 -0.028368425
0001e0 52 52 8c bd 56 22 17 3c d3 1f 13 bd b0 7f 47 3d
       -0.06851639 0.009224495 -0.03591902 0.048705757
0001f0 4f 36 83 bd 72 65 8c bd 57 ab 90 bd ae ae 44 3d
       -0.06406843 -0.06855287 -0.070639305 0.04801815
000200 6b 8d 22 3d d6 2b 36 bc 13 86 66 bd 40 03 da 3c
       0.039685648 -0.01111885 -0.056280207 0.026612878
000210 f0 1a cd 3c 96 72 a4 bb 58 76 4b 3d 1e 44 48 bd
       0.025037259 -0.0050185425 0.04967341 -0.048893087
000220 bb 9e f3 3c 20 99 1e bd 20 25 23 3c 56 fd f1 bb
       0.029738775 -0.03872025 0.009957582 -0.0073849363
000230 70 f0 ad bc 5e 7c 6c 3d cb 18 87 3d 93 f0 92 3d
       -0.021232814 0.057735793 0.06596526 0.07174792
000240 ab 15 ca ba 7b 35 54 3d f6 aa 78 3c 5f 6a 94 3d
       -0.0015417835 0.051808815 0.015177479 0.07246851
000250 a8 bc 9c bd 7e 50 57 bd 46 c6 6c bd 08 50 33 bd
       -0.07653171 -0.052566998 -0.057806276 -0.043777496
000260 48 e3 04 bd ae 06 49 bd 26 9b 24 3d 90 aa 95 3d
       -0.032443315 -0.049078636 0.040187024 0.07307923
000270 5e 15 9b 3d 36 5a 60 bc 90 01 a2 bc be 2f 37 3d
       0.07572435 -0.013693383 -0.019776136 0.044723265
000280 c6 1b 8c 3d 16 59 ae 3c b6 91 04 3d 9e e2 95 bd
       0.06841235 0.021282714 0.032365523 -0.073186144
000290 96 ec ac bb 60 47 08 bc 60 9f 31 3d 84 e8 99 bd
       -0.0052772267 -0.008317798 0.043364882 -0.07515052
0002a0 cc d4 91 3d 03 88 1e 3d 36 84 54 bd c0 4a 49 3d
       0.07120666 0.03870393 -0.0518839 0.049143553
0002b0 d6 ee bd bc eb a3 5a 3d 2b 1e 30 3b 08 0d 55 bd
       -0.023185175 0.05337898 0.002687345 -0.05201438
0002c0 33 38 3a bd 00 c5 12 bc 64 8c 97 3d bb 57 e7 bc
       -0.045463752 -0.008958101 0.07399824 -0.028240075
0002d0 e8 92 87 bd 78 40 92 3d 3b 9a 9b 3d 06 75 63 3d
       -0.06619817 0.07141203 0.075977765 0.055531524
0002e0 4b 18 01 3c 4c fe 83 3d 20 a5 b3 bc 88 14 aa bd
       0.007879327 0.06444988 -0.021929324 -0.08304697
0002f0 f6 f3 80 bc 46 a0 5c bd e6 0d a1 3c 38 53 a2 bd
       -0.01574133 -0.053863786 0.019659948 -0.07926029
000300 98 4c a7 bd f8 52 83 3d 46 bd 8e bd 9e 48 7c 3d
       -0.08168906 0.064123094 -0.06969695 0.06159269
000310 c0 f3 0d bd b6 c0 6e 3d eb b8 92 bb b6 ad cd 3c
       -0.034656286 0.058289252 -0.0044776103 0.025107246
000320 20 f3 5a 3c 0e 1b 13 bd 96 c1 62 bc 40 b2 d8 3b
       0.01336363 -0.035914473 -0.0138401 0.006613046
000330 58 5d 03 3d f3 07 96 3d 83 b4 1b bd b8 c7 06 bd
       0.03207144 0.07325735 -0.038013946 -0.03290531
000340 8b 80 36 bc 0e 56 5d bd a0 40 01 3c 36 af 5f 3d
       -0.0111390455 -0.054037146 0.007888943 0.054610454
000350 56 cc 19 3b 50 fc 46 bd 5e 08 7a 3d 40 63 00 bd
       0.002346774 -0.048580468 0.061043136 -0.031344652
000360 76 db 2b 3c 4c b8 82 bd 02 3d 96 3d e0 18 6f bd
       0.010489335 -0.06382808 0.07335855 -0.058373332
000370 78 c5 6b bd ee 3a 29 bd d8 dc 61 bd 5f fe 82 3d
       -0.057561368 -0.041315965 -0.055142254 0.06396174
000380 16 96 01 3c cb f8 6d 3d df 2f a1 bd 96 34 90 bd
       0.007909318 0.058098596 -0.07870459 -0.0704128
000390 d3 a6 75 3d 3e b9 8e 3d 6e 6c 98 3d 10 7a 11 3d
       0.05997355 0.06968926 0.07442556 0.0355168
0003a0 5e 0b 8d 3d 90 fc 33 bd e8 d8 2c 3d 46 80 1d 3d
       0.06886934 -0.043942034 0.042199045 0.03845241
0003b0 43 c4 0a bd 93 10 34 bd 18 f4 7f 3d 80 02 b6 bc
       -0.033878576 -0.04396112 0.062488645 -0.022217989
0003c0 70 a8 51 3d a8 72 19 bd 88 58 1d 3d 06 1f fd 3c
       0.051186025 -0.03746286 0.038414508 0.030898582
0003d0 46 34 ec bc 7e e2 05 bd 80 d8 29 3d eb 63 a3 bc
       -0.02883352 -0.032686703 0.041466236 -0.019945106
0003e0 aa 4f a4 bd 40 c3 b8 3c e3 f2 04 bd 3e 5b 49 3d
       -0.08023007 0.02255404 -0.032458197 0.04915928
0003f0 6b 47 cd 3c 16 ab a6 3c de 43 5b 3d 90 0c 1b bd
       0.025058469 0.020345252 0.05353152 -0.037853777

6.bias f4 [32]
000000 20 68 7d bd 06 d2 11 bd 20 1d 15 bc 3b ce 7c bd
       -0.06186688 -0.035600685 -0.009101182 -0.061720114
000010 fb 39 7a 3d d6 bd 8b bb 6b 4f aa 3d e0 ce 91 bc
       0.06109045 -0.0042645736 0.08315929 -0.017798841
000020 16 c0 39 3c cf 7c aa bd c3 11 0f 3d 44 59 9d 3d
       0.011337301 -0.083245866 0.03492905 0.07683042
000030 87 31 97 3d 28 1b 33 3d 8e ce 92 bd 0e 60 1d bd
       0.073824935 0.04372707 -0.071683034 -0.038421683
000040 ab 5a 01 3a 24 4e 9f bd c3 07 6d 3d ae e2 08 3d
       0.000493447 -0.07778576 0.05786873 0.033419304
000050 30 32 f9 3c 9f 75 81 3d b8 fa 40 3d 50 27 c9 bc
       0.03041944 0.063212626 0.047114104 -0.024554878
000060 46 f7 c0 3c 00 91 60 3b 00 b4 52 3b d6 cf 94 bb
       0.02355541 0.0034266114 0.0032150745 -0.0045413775
000070 8b e8 cf bc c0 5a b0 bc 1e 26 40 3d 73 a3 28 bd
       -0.02537944 -0.021527648 0.04691135 -0.041171502

8.weight f4 [64, 32, 3, 3]
000000 b9 df 6e bd 18 9a 0d bd 00 32 ca 3c cd eb 0d bd
       -0.058318827 -0.034570783 0.024682045 -0.034648705
000010 a5 31 43 bd c7 16 a9 bb df ba 2c 3d d3 a4 10 bc
       -0.047654767 -0.005160186 0.0421704 -0.00882836
000020 4b b3 4b bd 84 7c aa bc f3 07 f7 3c 62 f3 5b 3a
       -0.049731534 -0.020811327 0.030155158 0.0008390454
000030 25 bc 2c bd 09 ed 34 3d 58 38 97 bc 85 73 55 bd
       -0.042171616 0.044171367 -0.018459484 -0.05211212
000040 8e 1a ff 3b 7a c9 32 3d ff c1 42 bd d6 d2 35 3c
       0.007785148 0.043649174 -0.04754829 0.0110976305
000050 26 d9 3b 3d 4a 78 3c bd dc de 52 3d a6 0a 97 3c
       0.045861386 -0.046013154 0.051482067 0.018437695
000060 05 b6 18 bc 45 86 e3 3a 77 66 cd bb 95 74 1b 3d
       -0.009320741 0.0017358741 -0.0062683183 0.03795298
000070 dd 37 d1 3c a0 48 35 bc c4 c0 cc 3c 8a 30 70 3d
       0.025539333 -0.011064678 0.024994262 0.05864004
000080 df 43 61 3d 23 50 37 3d da 6d 8a 3c 01 47 fa bc
       0.054996368 0.04475416 0.016898084 -0.030551435
000090 a3 6c 39 3c 42 69 a0 3c 79 09 bc 3c 93 70 30 3d
       0.011317405 0.01958144 0.022953736 0.04307611
0000a0 d6 6e ba 3c fd 37 81 3c f8 df 16 bd b1 3e 67 3d
       0.022757929 0.015773768 -0.036834687 0.05645627
0000b0 dc 45 29 3a 57 61 6e bd 20 ed 01 bd ae ba 1f bd
       0.0006457248 -0.0581983 -0.03172028 -0.03899639
0000c0 f4 55 c1 bc f1 c2 1c bd c9 b1 12 bd d3 5f 0a bd
       -0.023600556 -0.038271848 -0.03581408 -0.03378279
0000d0 82 ac 8d 3b 70 ee 22 3d 47 d9 d9 ba a5 48 0d 3d
       0.004323543 0.039778173 -0.001662054 0.034493107
0000e0 b0 f6 41 bd 9b 1f 3f 3d 58 8c 45 bd 3c c3 15 bd
       -0.0473544 0.046661 -0.048229545 -0.036563143
0000f0 db 42 7d bb 32 38 02 bd 77 ef 00 3d c9 36 35 3d
       -0.0038644585 -0.031791873 0.03147837 0.0442417
000100 0b 92 10 bd f2 36 90 bc 33 ac 67 bc 15 2b 62 3b
       -0.035295527 -0.017604325 -0.014140177 0.0034510542
000110 a4 5d f1 bc 60 6f 1f 3d 54 a8 38 bc 8c 02 54 bd
       -0.029463597 0.038924575 -0.011270601 -0.05176024
000120 e3 1a 4a 3b 3e ad ed 3b e8 f4 83 bb 59 1e 16 bd
       0.003083878 0.007253318 -0.004026998 -0.036650036
000130 c3 a6 2c bd f8 1e 41 3d 85 28 71 3c 55 66 69 bd
       -0.042151224 0.047148675 0.014719133 -0.056982357
000140 af 66 57 3d e8 23 f7 bb d5 1f 83 bb 44 fe 8c 3a
       0.05258816 -0.007542122 -0.0040015974 0.0010756929
000150 18 06 5c 3d ba bf f2 3c 6e 7f 8d 3b 30 ce da bc
       0.05371675 0.029632438 0.0043181693 -0.026709646
000160 b0 28 d0 bc 04 55 ec bc 8c e6 1c bd da b3 4c 3d
       -0.025410026 -0.028849132 -0.038305804 0.049976207
000170 f1 f2 1f 3d 36 38 09 3c 5e 48 1d 3c 1e 75 a2 3c
       0.039050046 0.008375218 0.009599773 0.019831236
000180 4a c8 16 bd 70 4b 26 3d 73 81 95 3c 02 a9 2c 3b
       -0.036812104 0.040599287 0.018250203 0.0026345854
000190 bf 02 57 3d dc 2b 9a 3c 8f fc 48 3d 41 4c 37 bc
       0.052492853 0.018819742 0.049068984 -0.011187614
0001a0 30 16 1a bd e8 c8 51 3c e6 6e 99 bb a3 90 b6 bb
       -0.037618816 0.012804247 -0.0046824096 -0.0055714413
0001b0 82 fb 57 3b 92 46 31 bd 6c 3c 82 bc 60 84 b4 3b
       0.0032956307 -0.04328019 -0.015897952 0.0055089444
0001c0 f5 24 e3 bc a6 75 3a bd 0e d1 d8 3a 62 21 3c bd
       -0.027727583 -0.045522355 0.0016541795 -0.045930274
0001d0 8b dc 5a bd 08 e7 99 bc cc 5d 51 bd 4b cb b5 3b
       -0.053432982 -0.018786922 -0.051114842 0.005547916
0001e0 9d e0 fd bc 2b 45 cb 3b 19 04 4a 3d 5b c1 a3 bc
       -0.030990893 0.006203314 0.049320314 -0.01998966
0001f0 00 44 8b bc a8 fc 48 3c 7d 25 ff bc 90 ed 1f bd
       -0.017000198 0.012267269 -0.031145805 -0.039044917
000200 86 77 5f 3d 88 b0 e7 bc 76 eb 88 3b 3e 4b e2 bc
       0.054557346 -0.028282419 0.0041784598 -0.027623769
000210 ad a3 dc bc 37 3d 31 3d ce 22 9e bc 9a 96 e7 3b
       -0.026933515 0.04327127 -0.019303706 0.0070675137
000220 20 87 3d 3d 44 8c 36 3d 38 f0 8f 3b 84 2e 02 bd
       0.046271443 0.04456736 0.00439265 -0.031782642
000230 5d 3e 68 3b 0e 01 10 3d 20 bc be 3c 0f 5d fb bc
       0.0035437562 0.035157256 0.023283064 -0.030684022
000240 42 a4 7b bb f7 3a b2 3c 94 97 2d 3d a3 5e 66 3d
       -0.0038397466 0.021756632 0.042380884 0.056242596
000250 56 0e 4a 3d 1c d9 5d 3c 34 e0 04 3d 01 93 51 bd
       0.049330078 0.013540532 0.03244038 -0.051165584
000260 59 45 cd 39 ac 0a 45 3d 10 6e 2c bd 3f b4 bf bc
       0.00039152315 0.04810588 -0.04209715 -0.023401378
000270 23 79 ed 3c f4 75 70 3d 69 8f 51 3d c7 2a 25 3d
       0.028988427 0.05870624 0.051162157 0.040324
000280 4f c2 09 bd 81 cf b4 3c 31 b7 0f 3d e4 1f 03 bd
       -0.033632573 0.022071602 0.035086814 -0.032012835
000290 c4 c7 08 bd c9 e8 fb 3b d8 bf 4c bd a3 24 73 3c
       -0.033393636 0.0076876623 -0.049987644 0.014840278
0002a0 cb e2 29 bd 77 9a 65 bd e7 77 33 bd 16 aa 56 bd
       -0.041476052 -0.056055512 -0.04381552 -0.0524083
0002b0 54 16 f9 3c d9 16 1c bd bc 0f e0 3b 12 d2 1a 3c
       0.030406155 -0.038107727 0.006837813 0.009449499
0002c0 3d 65 fc bc 57 26 35 bd 56 c8 d2 3c d5 2d 58 bb
       -0.030809993 -0.044226017 0.025730293 -0.0032986302
0002d0 21 b4 4e bc f8 7b 21 3c f5 55 f3 bc f6 74 2a bd
       -0.012616188 0.009856217 -0.029704073 -0.04161545
0002e0 f8 6d 54 3d 45 d9 1f 3c a8 ba 39 bd d5 45 42 3d
       0.051862687 0.009756391 -0.045344025 0.04742988
0002f0 14 ae 29 bd 1a 34 1b 3d 9d 3c 1c 3d b7 87 9d 39
       -0.04142578 0.037891485 0.038143743 0.0003004649
000300 13 a5 4b bd af f5 f7 3b c7 c1 36 3c 1a ab 71 bc
       -0.049717974 0.0075671296 0.011154599 -0.014750266
000310 3f 9a f7 bc 20 72 55 3d be 3e a7 bc 06 0c 29 bd
       -0.030224917 0.05211079 -0.02041566 -0.041271232
000320 e5 4c 2f bd 2f 2f 23 3d 68 86 41 bd 7d 92 a6 bc
       -0.04279794 0.03983992 -0.04724732 -0.020333523
000330 c3 d0 a2 3c 16 15 e1 3c 02 ba 82 3c 69 0f fb 3c
       0.019874936 0.027475875 0.015957836 0.030646997
000340 dd 7b 0c bc 3a 3d 56 bd 8c 05 43 bd a2 57 64 bd
       -0.008574453 -0.052304484 -0.04761271 -0.055747636
000350 76 b1 38 3d e0 5c d5 bb 30 a9 3b 3d ff a7 51 bd
       0.045091115 -0.0065113157 0.045815647 -0.051185604
000360 7d 42 6b bd 83 90 3a 3d 45 db 8e 3b 2a be 98 bc
       -0.057436455 0.045547973 0.004359635 -0.018645365
000370 fd eb 0e 3d b2 8f cc bc db 2b 49 bd 66 73 16 bc
       0.034893025 -0.024970863 -0.04911409 -0.009182787
000380 d7 72 04 3d f7 93 b7 bb 3a dc 27 bd ba e7 a0 bc
       0.032336082 -0.0056023556 -0.04098151 -0.019641746
000390 73 76 a5 bc 09 77 b1 3c db ab 70 3d 1b 37 63 3c
       -0.020198083 0.021663206 0.058757644 0.013868119
0003a0 1b 64 ef 3c af 6c ea 3b 31 6d f5 3c 66 b9 ee 3c
       0.029222539 0.0071540694 0.029959293 0.02914114
0003b0 f7 c3 55 3c 40 01 48 3d a0 60 99 3c 31 22 12 3c
       0.01304721 0.048829317 0.018722832 0.008919285
0003c0 de f4 6e bb 3c df 1a bd 7a 7d 2c bd 1a a5 03 3d
       -0.003646187 -0.03781055 -0.04211185 0.032139875
0003d0 63 1f e3 bc 90 fb 40 bd eb b6 68 bd fd bf 46 3c
       -0.027724927 -0.04711491 -0.05681507 0.0121307345
0003e0 ba a7 14 3d 61 99 d5 bc 4a 58 36 3d 23 b7 1a bd
       0.03629277 -0.026074113 0.044517793 -0.03777231
0003f0 c0 63 5d bd 08 cf 41 3d 39 73 a3 3b 62 4d 4a bd
       -0.054050207 0.04731658 0.004988101 -0.049390204

8.bias f4 [64]
000000 0f e9 04 3d a9 c5 f1 3c 0a 78 40 3d 7a f1 5f bc
       0.032448824 0.029513197 0.04698948 -0.013668412
000010 ad e2 d3 3c e3 e7 99 bc 87 85 44 3c 4a e1 fb bc
       0.025864923 -0.01878733 0.011994726 -0.030747075
000020 bc d8 da 3c 7e c9 25 bb d1 2b 1b bc 24 69 bd 3c
       0.026714675 -0.00252971 -0.009470896 0.023121424
000030 3f 0f 04 bd 18 d7 5e 3d 9f a2 ae 3c e6 5c 21 3d
       -0.032241102 0.054404348 0.021317778 0.039395235
000040 21 7c 52 bd 63 33 a8 bc b6 10 11 bd b0 99 89 3c
       -0.05138791 -0.020532316 -0.035416327 0.016796917
000050 35 9b c9 bc c3 d9 36 bd 8d ed 3f 3d fd bc 66 bd
       -0.024610141 -0.044641268 0.046857405 -0.056332577
000060 5a de 6b 3c 1d 3f bd bc bd 6f 3c bd 46 96 64 3c
       0.014396274 -0.023101384 -0.046005 0.013951844
000070 86 bc e8 bb f9 cb b5 bc 18 d1 02 bd ac 78 5b bc
       -0.007102552 -0.022191988 -0.03193769 -0.01339547
000080 ef bc 85 ba ce 31 34 3d 27 c9 01 bc 5f 7a 11 3c
       -0.0010203401 0.04399281 -0.007921494 0.008879273
000090 21 11 3d 3d 1f be 50 bc 6e ca a3 3c 3f a0 48 bd
       0.046158914 -0.012740641 0.019993987 -0.048980948
0000a0 d0 e8 17 3c 3f 47 e7 bc de 16 3d 3d 73 f2 99 bc
       0.009271815 -0.028232215 0.046164386 -0.018792367
0000b0 60 d5 12 3d 4a ac 06 3b d8 a4 18 bd 80 70 14 3d
       0.03584802 0.002054947 -0.037266582 0.0362401
0000c0 4b d5 9e 3c 98 fb 6e 3d 2d 74 d2 3b a7 49 25 bc
       0.019388815 0.058345407 0.0064225406 -0.010088361
0000d0 dd 40 51 3d 5b dd 92 bc 02 cc 5e bd d2 aa 3a 3d
       0.05108725 -0.017927816 -0.054393776 0.045573063
0000e0 b7 dc 1e 3d ea 31 1f 3d 2d d5 ba ba 6c c8 46 3d
       0.03878471 0.03886596 -0.0014254205 0.04853098
0000f0 d6 ad 5b bd 1b 4b e8 3c fb 75 d6 3c 30 14 37 bd
       -0.05363258 0.028356126 0.026179304 -0.044696987

10.weight f4 [2, 64, 1, 1]
000000 c6 8a d6 bd 52 83 d9 3d 88 a2 e4 3d 18 34 fb bc
       -0.10475688 0.106207505 0.11163813 -0.030664489
000010 08 24 8a 3d ce 53 c9 3d 74 91 b2 3d 38 49 30 bd
       0.06745154 0.098304376 0.08719149 -0.043038577
000020 38 a2 fc 3c f8 23 c1 3d f6 71 c2 3d 08 23 7f 3d
       0.03083907 0.094306886 0.094943926 0.062289268
000030 28 25 2f bd dc 10 a1 3d 50 b7 cc bd 3a 67 d5 3d
       -0.042760044 0.07864544 -0.099959016 0.104200795
000040 52 75 fa bd 30 6e 59 bd 40 a2 e2 3b 74 29 b6 bd
       -0.12229408 -0.0530836 0.0069163144 -0.08894625
000050 c0 1c b0 bd b0 b7 ab 3d a8 43 ea 3c da 80 a5 bd
       -0.085992336 0.08384645 0.028596714 -0.08081217
000060 d8 09 9e bd 14 26 d8 3d a0 b3 82 bc 00 0c 33 ba
       -0.07716721 0.10554138 -0.015954792 -0.0006830096
000070 6e a1 be 3d 00 40 20 38 5c 8c 29 3d f4 d2 bc bd
       0.09308134 3.8206577e-05 0.041393623 -0.092199236
000080 70 c9 06 bd d4 26 40 bd 7c cd a6 3d 8c b8 4c 3d
       -0.03290695 -0.04691203 0.08144662 0.049980685
000090 10 4d c0 3d 7c 0f 30 3d a0 31 ce bb cc d9 50 bd
       0.093896985 0.042983517 -0.006292537 -0.050988957
0000a0 bc 95 74 bd 78 8a b3 3c 8c bd c5 3d 22 cc 99 bd
       -0.05971311 0.021916613 0.09655294 -0.07509638
0000b0 2c 01 ec bd ec 99 f1 3d bc 29 6c 3d 68 47 c7 bc
       -0.11523661 0.117969364 0.05765699 -0.024326041
0000c0 ae 63 82 3d 40 b7 97 bd d8 60 72 3d 74 0e 0b bd
       0.06366669 -0.07407999 0.05917439 -0.03394933
0000d0 e4 07 14 3d 6e 6d ad 3d d8 65 fc bc 52 d7 aa 3d
       0.036140338 0.08468138 -0.030810282 0.0834185
0000e0 7e f7 f2 bd e0 d6 be bd d2 74 b2 3d 1e 62 cb 3d
       -0.11863612 -0.09318328 0.08713688 0.09930824
0000f0 20 96 90 bb 8e 06 f6 bd 8c b2 cb bd c4 5d ef bd
       -0.0044124275 -0.12012969 -0.099461645 -0.11687806
000100 3a 47 b6 3d 04 55 85 bd 02 03 9f bd 50 47 60 3c
       0.08900304 -0.06510356 -0.077642456 0.013688877
000110 50 90 12 bd fe 94 e9 bd 0a 0d 88 bd a0 99 d7 bb
       -0.03578216 -0.11405371 -0.06643112 -0.006579593
000120 10 ab 7c bc bc 01 f4 3d e0 75 11 3c 18 15 dd 3d
       -0.015421644 0.11914393 0.008878201 0.10795039
000130 28 ed 0a 3d d0 26 d8 3d aa 1a b4 bd c8 13 22 3d
       0.033917576 0.10554278 -0.08794148 0.039569646
000140 60 08 a7 3b 2e 38 b0 bd a4 1e 20 3d d8 39 9a bd
       0.005097434 -0.086044654 0.03909172 -0.07530564
000150 4c 31 b6 bd 48 e1 5e bd 80 5b a6 bc 3e b0 a5 3d
       -0.088961214 -0.054414064 -0.020307302 0.08090256
000160 88 a0 dd 3d 60 fe 2a bd 70 4b cd bc 68 e9 10 3d
       0.108216345 -0.041746497 -0.025060385 0.035378844
000170 88 e6 4a 3d f4 d1 fe bd e8 37 cf 3c 5c 08 73 3d
       0.049536258 -0.12442389 0.025295213 0.059334144
000180 6c 3e c7 3d 6a 64 f8 3d 2c 5c 7d bd 14 45 b0 bd
       0.09728703 0.121285275 -0.06185548 -0.086069256
000190 d0 97 cc bd 46 d4 ac 3d 70 9b 0c bc 80 3e 1b 3b
       -0.099898934 0.084389254 -0.008581981 0.0023688376
0001a0 d2 d3 b4 bd 2c 31 93 3d 60 bc ed 3b 5e 60 c0 3d
       -0.08829464 0.07187113 0.007255122 0.093933806
0001b0 e8 02 ae bd ca 08 df 3d 4a 4f d3 3d d8 d8 f8 bd
       -0.08496648 0.10890348 0.103178576 -0.12150735
0001c0 28 25 cf 3c 48 0a 91 bc ec 79 65 bd 44 fb cf bd
       0.025286272 -0.017705098 -0.056024477 -0.10155347
0001d0 94 14 62 bd b0 3a b9 3d 46 48 b5 bd b4 0b 74 3d
       -0.055195406 0.09044397 -0.08851676 0.059581473
0001e0 5c 76 10 3d f8 bf df bd f4 cc 5a 3d e0 e1 1b 3c
       0.035269126 -0.10925287 0.053418115 0.009514302
0001f0 92 66 ae 3d 68 aa bf bd ec 45 f0 3d 28 34 c8 3d
       0.085156575 -0.09358674 0.117320865 0.09775573

10.bias f4 [2]
000000 40 82 25 3d 80 2d 8b bc
       0.04040742 -0.01698947
