checkpoints/model_6.pt (torch, 103423 bytes, 12 tensors)

0.weight f4 [4, 2, 3, 3]
00000000: 0edf 983d c7aa 2bbe 20cf 743c 45dd 9abe
00000010: 9ce0 633e 530f 233e 9e61 1c3e 43ab 1cbd
00000020: 855c 043e 9161 733e 3167 0bbe 954e 083c
00000030: daf7 79be f190 993d e3e8 f63d 17b4 18be
00000040: b8bb 89be cf24 65bd 6470 313e 04ac 8b3d
00000050: 7e3e d13d 2709 153e 611a 80be 2b6a c93d
00000060: 28a4 90bc 5389 813e 1cf1 19be c46c 41be
00000070: bd5d 243c 279f 283e 9fb8 3d3d d325 17be
00000080: c72b 2c3d a976 553e d762 aa3d cfc6 53be
00000090: 6ddd 55be edaa 2dbe ffe9 0c3e 3044 9abd
000000a0: 7e23 d4bb d861 4c3e b22e 103d f168 733e
000000b0: 3125 52be 7ecf 073d 7dbd 85be 4e6a 8d3d
000000c0: 6ae0 623d d0ee 73bd 57d4 63be b109 e13d
000000d0: 6288 65bd 9dad 6fbd c76f 0bbd 8d63 8dbe
000000e0: e324 25bd 928d 4b3e 4a44 033e eb31 273e
000000f0: dc64 8dbb 6792 3b3e 7984 30be 842d d63c
00000100: a843 b0be 634e 043e 440c c5be 70f1 723e
00000110: da22 2cbd 0a7f f03d aa6d de3d 4a74 db3d
0.07464419 -0.16764365 0.014941961 -0.3024694 0.2225365 0.15923814 0.15271613 -0.038249265
0.12925918 0.23767687 -0.13613583 0.008319517 -0.24410954 0.074983485 0.12056138 -0.14912449
-0.2690103 -0.055943307 0.1732803 0.06819919 0.102169976 0.14554273 -0.25020126 0.09834703
-0.0176564 0.25300083 -0.15033382 -0.18889147 0.010032115 0.16466962 0.046318647 -0.14760523
0.042033937 0.20846047 0.083196335 -0.20681308 -0.20885248 -0.16959734 0.13761137 -0.07532537
-0.0064739576 0.199592 0.035200782 0.237705 -0.20522 0.033156864 -0.2612113 0.06905042
0.0553898 -0.05955392 -0.2224897 0.109881766 -0.056038268 -0.05851518 -0.034042146 -0.27615014
-0.04031838 0.19878224 0.12819019 0.16327636 -0.004315002 0.18317567 -0.17238034 0.02614475
-0.34426618 0.12920527 -0.3848592 0.23724914 -0.042025425 0.11742981 0.108607605 0.1071554

0.bias f4 [4]
00000000: 7fb5 10bc 5c4e f2bd a31d 873e b6eb 61be
-0.008832335 -0.11831352 0.263898 -0.22062573

2.weight f4 [8, 4, 3, 3]
00000000: 3b22 83be b76e ccbd 65f2 f03d ba5a c2bd
00000010: a236 9fbe 0f2e 03be c20b f63d ec39 af3d
00000020: 7bd0 a43c 8c1d 143e 3f77 6d3e 9a4c 063d
00000030: 20b1 02be 4d5a 063e 770f 2f3e 85dd 4f3e
00000040: 298e 8fbd 4723 273d 9b3d f33d 43f1 123d
00000050: 727d 4dbe 64d7 02bd c4f1 c6bd 9f25 1b3e
00000060: 5786 123e 90c6 23be c49b 373e ae86 393e
00000070: b9c4 763c 992c 3fbe 7b50 aebd 2da8 8b3c
00000080: b240 9f3d dbf1 9bbc 0794 943d da60 433e
00000090: 96a3 a6be 72f9 e73d 13b5 a53c 9eb7 2f3e
000000a0: 5ac7 65be d891 523d 811c 9bbe 8da0 073e
000000b0: a72c 96be c988 083e 8527 0ebd 783f 1d3e
000000c0: a80d e9bd 9b82 893e b3fd f33b 49de d5bd
000000d0: 8b96 4abe 61a5 f23d 749a 1a3e d422 31bd
000000e0: 6a40 f6bb 8d48 23bd fb2e 743e 75a1 4ebd
000000f0: 577c 4cbc 9f08 423e 518f 433e b97d c53d
00000100: 246f 74be 0c86 98bc 09cb 49bd a040 053e
00000110: 06f5 d33c 1cf2 07be a803 bebc 40f4 ed3c
00000120: b780 41bd d835 613e ea26 f93c 0aaf e83c
00000130: 4a90 4a3c 4756 063e 8f80 86bd d243 1abd
00000140: 76d0 b5bd 5856 243e da21 a93c 5f5e f73d
00000150: 7149 90be a2ee 99bd 342f 36bd 7c19 90bc
00000160: a0dc 11be 7aba 34be 9425 703d 63a1 9a3c
00000170: 94d9 87be 1a27 393e af34 ccbd c76b 40be
00000180: 9cd1 b03d c513 28bb c9c3 193e 456a 97be
00000190: 8a5d 453e f7d8 92be 29b7 9cbc afd5 88be
000001a0: 3fb1 4b3e 6852 123e 9caf 53bd 84f5 febd
000001b0: f2b6 433e 1ff8 d93d 10c6 08be d61c f43d
000001c0: 9ae4 f23c b48e 27be 92af 30be 56cb 23be
000001d0: 4b75 4cbe 207d 3d3d 8ecc 25bd 72b5 94bc
000001e0: 92eb 5bbd 8598 0fbc fca8 e7bd 1c69 803d
000001f0: e039 3ebe 2233 26be 557f e4bb 5668 97bd
00000200: 46bf b13d 1aae 293e 26c3 a6bc 832d cf3d
00000210: 71a4 9d3d a236 0a3d 26d1 8c3d acc0 a53d
00000220: d2fc 31be 2efe 22be 2a94 1b3e 6af5 ab3d
00000230: 10f1 153e e034 003e 9fec 003e c7e3 2b3e
00000240: c129 b8bc 734a c1bd ea43 1f3e 5dc3 38bd
00000250: e994 4f3e 6246 2a3e 9609 763d fcca 783d
00000260: 1b27 e43d 1cef 253e 6149 a03d efc5 4cbe
00000270: 1cff 5c3e 9991 39be b64c 07be 0c04 b1bd
00000280: f008 d1bd ff90 1cbd 8ea9 01be dcc5 d13d
00000290: 8901 733d 277a 253e 3133 1dbc bd60 723d
000002a0: d8ff 003d aa91 c83d 8286 82bc f993 1fbe
000002b0: 174e b8bd 84c8 4dbc e8f5 1b3e 1355 2fbe
000002c0: 8e7e a83d 5bec 4bbd 0321 3bbe 73bd 6bbd
000002d0: fa06 ce3d cd43 d1bd da34 d93d 765c 2abd
000002e0: 9bec 33be 37c2 673d 1dd2 97bd f168 423d
000002f0: 7328 3fbe d1c4 073d 0d9e fb3b ce34 9ebd
00000300: e47d 91bd 23c4 a9bd afc9 923d f74c abbd
00000310: 1149 20be d747 60bd d3a5 43bc e004 3f3d
00000320: 9cba edbd a79f 553e b9c1 89ba b183 483d
00000330: 228c f73d 3372 783b a808 2c3e a786 9cbd
00000340: cc65 03be 6f0d 4ebe 71bd 8a3e bbe2 a0bc
00000350: 02a7 f1bd cea2 2d3c b9f9 e13d 1f34 98bc
00000360: 43c4 5b3d 3105 823d 6567 d13d d0c0 003e
00000370: c9fa adbd afaa 8a3b 66e0 b13a b13e fd3d
00000380: 2183 b2bd 80b5 d43c 076b bb3c 1c59 efbd
00000390: e378 1a3d eb31 6fbd a736 d73c ff76 413e
000003a0: 4a8f 173b f174 0eb9 1bd3 433e de7d dbbd
000003b0: d4e1 273d 5543 253e 5ecb 153e ed5f bb3c
000003c0: 7345 413d df7e 08be db8e 433e ac83 813c
000003d0: 1ee7 a2bd 76f5 e23d a416 293d f39e c93d
000003e0: a12f aebd 19bf 6e3e 6599 303e 0a20 00bd
000003f0: 50ad adbd 9de3 133e 3cf1 803e d0e1 643d
-0.25612053 -0.09982055 0.11764983 -0.09489961 -0.3109637 -0.12810539 0.120139614 0.085559696
0.020118942 0.14464396 0.2319002 0.032787897 -0.1276288 0.13120385 0.17095743 0.20299347
-0.07009537 0.040805127 0.11876985 0.035874616 -0.20067385 -0.031943694 -0.09714082 0.1515107
0.14309059 -0.15993714 0.17930514 0.18117782 0.015061551 -0.18669356 -0.08511444 0.017047966
0.077760115 -0.019036224 0.072547965 0.19079915 -0.3254668 0.11326875 0.020227944 0.17159888
-0.22439328 0.05140862 -0.30295184 0.13244839 -0.29330942 0.1333343 -0.034705658 0.15356243
-0.11379558 0.26857457 0.007446015 -0.10442788 -0.1978399 0.1184795 0.15097982 -0.043246105
-0.007515003 -0.03986411 0.23846047 -0.050446946 -0.012480817 0.18948601 0.1909764 0.0964312
-0.23870522 -0.018618606 -0.049265895 0.13012934 0.025873672 -0.13275951 -0.023195103 0.029047132
-0.047241893 0.21993196 0.030414063 0.028403778 0.012363503 0.1311885 -0.06567489 -0.037662335
-0.088776514 0.16048563 0.020646024 0.12078547 -0.2818103 -0.07516219 -0.04447861 -0.017590277
-0.14244318 -0.1764926 0.058629587 0.018875783 -0.26533186 0.18081322 -0.09970986 -0.18791114
0.0863373 -0.002564655 0.15016092 -0.29573265 0.19273964 -0.28681156 -0.019130306 -0.26725528
0.19891833 0.14289248 -0.051681146 -0.12449172 0.19112757 0.106430285 -0.13356805 0.119195625
0.029650021 -0.1636303 -0.17254475 -0.15995535 -0.19966619 0.046261907 -0.04047828 -0.018152926
-0.053691454 -0.008764391 -0.11311528 0.06270048 -0.18576765 -0.16230443 -0.006973187 -0.073929474
0.08679061 0.1657032 -0.020356726 0.101161025 0.0769738 0.03374351 0.068758294 0.0809339
-0.173816 -0.15917274 0.15193239 0.083964184 0.1464274 0.1252017 0.12590264 0.16786109
-0.022480847 -0.09438028 0.15553251 -0.045108188 0.20271648 0.16628411 0.060067736 0.060740456
0.11140271 0.16204494 0.07826496 -0.1999738 0.21581692 -0.18121947 -0.13212857 -0.0864335
-0.10206783 -0.038224217 -0.12662336 0.10242817 0.059327636 0.16159879 -0.0095947245 0.059174288
0.03149399 0.09793408 -0.015933279 -0.15583791 -0.089992695 -0.012560014 0.15230525 -0.17122297
0.082272634 -0.049785953 -0.18274312 -0.05755372 0.100599244 -0.1021801 0.10605784 -0.041592084
-0.17570727 0.056581702 -0.07413123 0.04746336 -0.18667774 0.033146683 0.007678753 -0.077249154
-0.0710409 -0.08289363 0.07167374 -0.08364289 -0.15652873 -0.05475601 -0.011941391 0.04663551
-0.116078585 0.20861684 -0.0010510004 0.048953716 0.12087275 0.0037909865 0.16800177 -0.076428704
-0.12831801 -0.20122312 0.27097657 -0.019639364 -0.11799432 0.010597898 0.11033959 -0.01857954
0.053653967 0.063486464 0.10224799 0.12573552 -0.08495099 0.004231773 0.0013570904 0.12365473
-0.08716417 0.025965452 0.022878183 -0.11686918 0.037712943 -0.058397215 0.026271177 0.1889305
0.0023126178 -0.0001358574 0.19123499 -0.10717367 0.04098685 0.16138966 0.1462836 0.02287289
0.047185373 -0.13329647 0.19097464 0.015809856 -0.07954238 0.11081974 0.041281357 0.0984477
-0.08505178 0.23315085 0.17246015 -0.031280555 -0.08480322 0.14442296 0.25184047 0.055879414

2.bias f4 [8]
00000000: 675a 18be f8a2 27bc 47d9 353c 12d9 3e3e
00000010: 5aa1 913d 66fe 0cbd fc48 e13a a59e 0fbd
-0.14878236 -0.010231726 0.011099166 0.18637493 0.071108535 -0.0344223 0.0017187889 -0.035063405

4.weight f4 [16, 8, 3, 3]
00000000: 7613 d1bd 621b b83d 74b4 d8bd 31da 5abd
00000010: d4fd 083e 1b6f 793e b68d 733c 87ec adbb
00000020: 7880 e93d 4231 19be c8fc 323e 6382 2ebb
00000030: d521 fb3d bd05 02be 7f01 7b3e 0472 1fbe
00000040: 7980 163e 0d25 10be 9f36 54be 2fca e6bc
00000050: d85c 9eba 5f3b 85bd a6d6 1abe 5dd1 833d
00000060: 2d34 95be 6734 28be 8909 7abc 5714 503d
00000070: f26e 2e3e e0bc d03c fb9e 11bb 61f6 07bd
00000080: 987e 893d 60b8 873d 687e 11bc 0cf8 d9bd
00000090: 03f5 0d3e 0b43 01be 9231 923d 0741 13be
000000a0: 87b0 313d a1dc 2ebe 8ac0 303e 18e8 1dbe
000000b0: 4268 1c3e ad63 8b3b 7fd6 283e a243 31bd
000000c0: bc4e 0a3e 13d0 d53d 11c3 693d 01c8 56bd
000000d0: f623 f93d b03e e93d 94d8 383b 833d 0b3e
000000e0: de46 ebbd 4799 bf3d 27c8 f8bd d589 003e
000000f0: 0982 36bd 339d 743c f706 aabd 7fcf ad3c
00000100: d342 f93d 8128 a0bd c19e 353e fac2 6dbd
00000110: f15b 513d bb32 31bc 75e4 1d3e 4faa f33d
00000120: 5f16 fb3a 7e1f 65be a6a0 59be 8a3b 21bb
00000130: f293 90be 439f 2abe 7b95 9f3d 801a 62be
00000140: 92b6 22be 91cb 69bd 8021 2ebe bbdb ae3d
00000150: 1d18 13bd 9b47 c5bc ffc6 68be 2bef 12bd
00000160: 5e71 aa3d c418 13be 9f0a 723e db3f 9e3d
00000170: fbf9 56bc ee7a 413e 236c ad3d 5260 0d3d
00000180: 20e4 f23d 6156 bb3d a2c1 c73d 0141 113e
00000190: 048a 28bd 36d3 63bd ebdf 55bd 7d51 f63d
000001a0: 7503 35bd ec98 433e 91fd 3bbb 5574 423e
000001b0: 0d49 4cbd 0e93 633d f288 f2bd f78a 4abd
000001c0: 55a3 bdbd b91f b4bd cd64 c93d c12d 873d
000001d0: 21c7 8a3d 0b83 6dbd 3b84 5cbd fa88 ec3c
000001e0: d9f0 c63d 9a6b d03d 3c6f 763d 52cc ed3c
000001f0: ceb3 903d 6478 1d3e 937b 133d 10d0 70bd
00000200: 06bf 35bb 673e ef3c dba9 0ebe 809d cd3d
00000210: 3be6 7bbd 7a3a f03d 2201 e7bb 7406 2ebd
00000220: 4100 2b3e feae 1b3e d4cd 4abd 0972 6b3e
00000230: d86d db3d da12 8b3d b775 f33d d1f5 fbbc
00000240: aa7e eabd 1066 0bbe 765a 0fbc c162 fa3d
00000250: c7fb 4ebe 29ce 31be 2001 cd3d 041b 5dbd
00000260: fc9f 2bbe b999 05bc d2a4 28be 2750 19bd
00000270: e223 183d 6518 d3bc 1adf 2fbe 6de1 09be
00000280: 181d 1f3d e245 c73a f46a 893d 751b 013e
00000290: 8140 213e 0cc6 683d f6cf 8a3e de7d 663e
000002a0: f28a 603e 120f 523e 1f30 1e3e 0c27 8fbc
000002b0: dd97 fa3d 514f 033e 0cc3 76bd 5b7f 443d
000002c0: c22f 2d3d 8673 493e a1b1 7b3d 2557 6e3d
000002d0: c109 a93d 192a 873d 5365 b33d 03a0 c13d
000002e0: 05f9 58bd 92fd b23d a679 683d f63a c4bc
000002f0: be5c b43d 9f4c 2d3d 8be5 86bd 6d32 e1bd
00000300: 406e 333e 3c29 893d 4f90 4b3b aae2 bf3d
00000310: 83bf 4ebd 721e fb3d 0448 ca3d 19b0 453d
00000320: 6465 403d 81b7 6abd 5a55 b4bd aff2 7fbd
00000330: d18b 253e ce76 723d 5b8b 3f3d 7c24 44bd
00000340: b5f2 373d 341d 6bbc cae6 b6bd 4b52 32bc
00000350: 5d4b 153d 70ef a4bd 6665 013e 07b1 fd3d
00000360: 54c2 b63c 9915 23be 26a0 00be f4e9 8cbb
00000370: e11c f5bc 4e07 fe3c 2480 093d 080f 4e3d
00000380: a033 903c 0771 22be 2a40 12bd 2d29 debd
00000390: b078 53ba e41a 09be f5ef c2bd db96 e8bd
000003a0: c9df 3dbd ff14 b3bd c306 00be 3f2b b3bd
000003b0: 9581 653c e237 463d e0bd e4bd c31b c3bd
000003c0: cf8f 583d 059e f63c e360 893c fd4e 043d
000003d0: 2f1b bebd 7921 f93d 4dea c0bd 8852 89ba
000003e0: 4188 cf3d e495 c13d bc8e 3bbd 37d3 ef3b
000003f0: de70 f2bd 549e ccba 9a37 ffbd 22a5 22bd
-0.1020879 0.08989598 -0.10581294 -0.05343074 0.13378078 0.2435879 0.0148653295 -0.0053077373
0.114014566 -0.14960197 0.17479241 -0.002662801 0.12262312 -0.12697501 0.2451229 -0.15570837
0.14697446 -0.14076634 -0.20723961 -0.02817258 -0.0012082113 -0.06505465 -0.15120944 0.06436417
-0.2914137 -0.1642624 -0.015261062 0.050800648 0.1703451 0.025480688 -0.0022220004 -0.03319395
0.06713599 0.066269636 -0.008880235 -0.10643014 0.13862996 -0.12623231 0.07138361 -0.14380275
0.04338124 -0.17076351 0.17260948 -0.15420568 0.15274146 0.0042538256 0.16488074 -0.04327739
0.13506597 0.10440078 0.057070795 -0.052436832 0.12165062 0.1138891 0.0028205262 0.13597684
-0.11488126 0.09355407 -0.12147551 0.12552579 -0.044557605 0.014930057 -0.0830211 0.021217106
0.12170949 -0.078202255 0.17736341 -0.058047272 0.051113073 -0.010815318 0.1541918 0.11897718
0.0019156447 -0.22375295 -0.21252689 -0.0024602138 -0.28237873 -0.16662316 0.07792183 -0.22080421
-0.15889958 -0.0570789 -0.17004967 0.08538004 -0.035911668 -0.024081996 -0.22732161 -0.03587262
0.08322404 -0.14364916 0.23636864 0.07727023 -0.013121123 0.1889455 0.08467891 0.034515686
0.11859918 0.09147335 0.097537294 0.14184953 -0.041147247 -0.05562135 -0.052215498 0.120272614
-0.04419275 0.19101304 -0.0028685073 0.1898969 -0.049874354 0.055560164 -0.118425265 -0.049448933
-0.09259669 -0.08795113 0.09833679 0.06600524 0.06776262 -0.0579863 -0.053837042 0.02887391
0.09713907 0.10176773 0.060164675 0.029028092 0.07065545 0.15377957 0.03600652 -0.058792174
-0.0027732267 0.02920456 -0.13931982 0.10039806 -0.06149886 0.117299035 -0.0070496956 -0.042486623
0.16699316 0.15203473 -0.0495127 0.2299272 0.107143104 0.06790705 0.11887687 -0.030756863
-0.114499405 -0.13613153 -0.008749595 0.12225867 -0.20213233 -0.173638 0.1000998 -0.053980842
-0.16760248 -0.008154326 -0.16469124 -0.037429955 0.037143596 -0.025768468 -0.1717495 -0.134649
0.038846105 0.0015203322 0.06709853 0.1260813 0.15747263 0.056829497 0.27111787 0.22508952
0.21928003 0.20513561 0.15448044 -0.017474674 0.12235997 0.12823226 -0.060244605 0.04797302
0.042281874 0.19672975 0.061448697 0.058188576 0.082538135 0.06599826 0.087595604 0.09454348
-0.05297186 0.08739771 0.056756638 -0.023953896 0.08806752 0.0423094 -0.065867506 -0.10995946
0.17522526 0.06697318 0.0031061356 0.093694046 -0.05047561 0.12261666 0.09877017 0.048263643
0.046971694 -0.05730391 -0.08805342 -0.0624873 0.16166617 0.059195332 0.04676376 -0.047886357
0.044909198 -0.014350224 -0.08930738 -0.010883878 0.036448825 -0.080534816 0.12636337 0.12387281
0.02230946 -0.15926208 -0.12561092 -0.0043003503 -0.029920997 0.031009343 0.03356947 0.050307304
0.017602742 -0.15863429 -0.035705723 -0.108476974 -0.0008066995 -0.13389164 -0.095184244 -0.113568984
-0.046355996 -0.08744239 -0.1250258 -0.08748483 0.014007946 0.048393138 -0.11169028 -0.095267795
0.05287152 0.030104646 0.016769832 0.03230189 -0.092825286 0.121645875 -0.09419689 -0.0010476867
0.1013341 0.094524175 -0.04579042 0.00731888 -0.11837934 -0.001561115 -0.12461777 -0.039708264

4.bias f4 [16]
00000000: 1506 ddbc e058 273e c480 683d f534 823d
00000010: 587a f6bd 8116 56bd 4e9b debd 0674 e83d
00000020: 09fe ba3d 2da2 d63d e21c 143e 746c 46bd
00000030: c3c4 9d3d d749 e7bd a97b 0f3e 075f 8b3c
-0.02698044 0.16342497 0.056763425 0.06357757 -0.12035054 -0.052267555 -0.10869466 0.11350255
0.091304846 0.10480151 0.14464143 -0.048443273 0.07703545 -0.11293381 0.14012016 0.017013086

6.weight f4 [32, 16, 3, 3]
00000000: c338 ebbd ba7c 9bbd 7ff6 e53c 452a 83be
00000010: 5743 47be e19c 2abe ea49 f2bc 6bde 24be
00000020: 62c3 c6bd df74 723d efcf ae3d 0da5 883d
00000030: 8b80 d03d ed2e c93d efd2 e73d 6729 003e
00000040: c522 983d 9978 0b3d 5f73 e43d 02a0 49bd
00000050: 547f 863d 5462 f03d 75ed c73d fab9 03bd
00000060: 60a9 c23d 255d 863d 4d4b 153e 8112 80bd
00000070: 48c7 bdbd eb2a 2e3d d7fe f6bd 68e7 b73c
00000080: e63c 44bd 2778 293b 6c7b 173d a83b fd3a
00000090: b3ee 163d 61b9 cebc 007a afbc 36cd 84bc
000000a0: 329e 363d d8b7 4c3d db11 ef3c 4861 01bd
000000b0: 375e 153d 900c 84bc 7b60 36bc 26ad 5d3d
000000c0: 5cb0 853c c890 89bd d680 acbd 33e4 f2b9
000000d0: 75fe 8ebc 4bb9 21bd 1bdc ed3b 41d3 42bd
000000e0: 0497 ab3d 4e2e 9ebd 7a61 e83c e5fa 643c
000000f0: 3f54 8d3c d629 5cbd 8282 dfbc 6229 33bd
00000100: f478 cf3d b8e0 20bd eaf3 e9bc 1b28 eabc
00000110: e44b c8bd b070 843d b0ef 8a3d 967b 84bc
00000120: 1077 f2bd 7d7a 9fbd 2bf2 7f3d 6e31 7dbd
00000130: 50df 05ba 70c3 f9bb 29b4 83bb 8eb1 833d
00000140: 8197 a03c 2094 ba3d 1c94 37bd 0756 503d
00000150: 79df 5c3d 0ff5 1abd c8c9 e43d 8ee2 ec3b
00000160: ea65 0c3d 12bf 283e aeac 783d a477 663d
00000170: 8d1d 2b3e 979e c43d 8f78 eb3d 55c0 203e
00000180: a056 0a3e 3df7 5d3d 051e ae3d 8461 8abd
00000190: bf88 813d 8ba9 c83d 94cf 633d 5abb b4bc
000001a0: e203 49bd 5655 babc 2aa8 9d3d 659f a33d
000001b0: 479e df3c faaf 043d f46c a83d 5fd0 d33d
000001c0: b33a 0b3d b2f5 cf3d 4a75 1d3e 1005 283d
000001d0: c24e 973b e1aa 2a3c 32df 383c 6cb2 35bd
000001e0: efef 88bd 3351 1d3d a9d8 d5bc db62 04be
000001f0: b8e9 81bd ffe3 a2bd 9cb6 993d 8f94 cd3d
00000200: 57bf 393e 8430 0d3e 56ae 513c 21f6 343e
00000210: 1d9a 203e 9afe c0bb f2ae b73d 4f76 b03d
00000220: 01e8 9d3d 5534 03bc e05f 0b3d f37b f53b
00000230: 3366 1f3d 092d 933c e626 ad3d eeeb f53d
00000240: 300c 273d db4a 9dbd 4aac e83c 1b09 febc
00000250: 12d1 043c b649 73bc ce9a b93c d6db de3c
00000260: 5475 803d c9af 253d ff4b 683d c149 0cbd
00000270: e894 74bd 8bd5 b8bd 28ad b5bd 0dd1 bcbd
00000280: f0bf 3cbd b276 483d 0406 9cbd df88 c2bd
00000290: e3ad 1c3c c0df 7abd 6174 4ebd 4dfe 4bbd
000002a0: e1ee 763d f087 543d 9246 6a3d 3038 71bd
000002b0: 33e9 183d 56b9 9f3c 6641 e5bc 2baf cdbc
000002c0: d030 64bd c823 0d3d 403f 533d ee25 1ebd
000002d0: 4ba4 66bd eb09 9dbc e67e 373d d8ea 40bd
000002e0: 56fc f0bc f647 4d3c 6e48 5b3d 3673 2abc
000002f0: 560f 273b e8fe 373d 7b9a 8fbc 0784 a0bd
00000300: 0827 993d 0b75 743c f6ba 713d 40ac 083d
00000310: 38fa 4abd 203c 6abd f0ce 2a3d 36b8 8fbd
00000320: f0a5 073d 6b02 193c 536c 3cbd 4eeb 723d
00000330: 7014 913d b6c4 783c 5fea 913d f47d 483d
00000340: 5e33 1abd aff6 87bd 1a33 7bbc 209d 023d
00000350: ae53 873b 0715 633d c0d5 98bd 3321 8dbd
00000360: a3dc b1bb bbd1 0cbd 9e1f 75bd 9e78 3c3d
00000370: c32e 11bd f65b b2bc 9267 4bbc ab10 c43b
00000380: 7447 c7bd e086 80bd c9d4 adbd 2eb8 b23c
00000390: c78b f5bb d9f9 b2bd a18c 533d ac76 fc3c
000003a0: 88c3 bebd 345e 4e3d a2b4 a0bb 8d2e 043d
000003b0: f330 403d 0c0f 43bd b717 cdbd 0505 86bc
000003c0: 318f 833a 5c22 a93c c435 9ebd 5e8b 31bd
000003d0: ab54 ca3b a49d a33d f640 e73c 20f7 53bd
000003e0: fbfb 7f3d 7ba9 773d 6836 8abd 336a 943d
000003f0: c773 523d fc95 5cbd 7b9a a8bc 7964 e33c
-0.11485436 -0.07592149 0.02807164 -0.25618187 -0.19459282 -0.16661407 -0.02957626 -0.1610047
-0.09705235 0.05919349 0.08535754 0.06672106 0.101807676 0.098234035 0.11319529 0.12515794
0.07428507 0.034050558 0.11154818 -0.04922486 0.06567255 0.117375046 0.09762088 -0.032159783
0.09504962 0.06560735 0.14579506 -0.06253529 -0.092665255 0.0425214 -0.120603256 0.02244921
-0.04790964 0.002585897 0.03698294 0.0019320147 0.036848735 -0.02523488 -0.021420479 -0.016211133
0.04458446 0.049980015 0.029183319 -0.031586915 0.036466803 -0.016119272 -0.011131401 0.054120205
0.016319446 -0.06717068 -0.08423011 -0.0004632786 -0.017455319 -0.03948335 0.0072589046 -0.04756475
0.08378413 -0.07723676 0.028366793 0.013975834 0.017252086 -0.053750835 -0.02728391 -0.043740638
0.10130492 -0.03927681 -0.02855869 -0.028583577 -0.097801 0.06466806 0.06783998 -0.016172212
-0.118391156 -0.07787035 0.06248681 -0.061814718 -0.00051068235 -0.007622175 -0.0040192795 0.0643035
0.019603493 0.09110284 -0.044818982 0.050863292 0.053924058 -0.037831362 0.11171299 0.007229156
0.03427688 0.16479138 0.060711555 0.056266442 0.16710491 0.09600561 0.11497604 0.15698369
0.13509607 0.054190863 0.085018195 -0.06756881 0.0632491 0.09797963 0.055617884 -0.022061992
-0.04907597 -0.02274577 0.076980904 0.079893865 0.027297152 0.032394387 0.08223906 0.10342478
0.033991527 0.101542845 0.15376773 0.041020453 0.004617543 0.010416717 0.011283683 -0.04435961
-0.06686389 0.038407516 -0.026104288 -0.12928335 -0.063434064 -0.07953643 0.07505533 0.10038101
0.18139397 0.13788038 0.012797913 0.17672016 0.1568379 -0.005889726 0.08968915 0.086163156
0.07710267 -0.008008082 0.03402698 0.0074915825 0.038915824 0.01796581 0.08454685 0.12007891
0.040783107 -0.07680293 0.028402466 -0.031010201 0.008106487 -0.014849117 0.022656824 0.027204435
0.062723786 0.040450845 0.0567131 -0.034250025 -0.05971232 -0.09025105 -0.088709176 -0.09219561
-0.046081483 0.04894132 -0.07618335 -0.09498762 0.009562942 -0.06124854 -0.050403956 -0.049803067
0.060286406 0.051887453 0.057196207 -0.058891475 0.03733177 0.019497555 -0.027985286 -0.02510794
-0.055710614 0.03445795 0.05157399 -0.03861039 -0.056309026 -0.019169768 0.044798754 -0.047098964
-0.029417198 0.012529364 0.05353587 -0.010403445 0.0025491319 0.044920832 -0.017529717 -0.07837682
0.07478148 0.014920483 0.05901619 0.033367395 -0.049555033 -0.057186246 0.041701257 -0.07017557
0.033117235 0.009338955 -0.046001744 0.059306435 0.07083976 0.015183618 0.07124781 0.048948243
-0.037646644 -0.06638848 -0.015332008 0.031888127 0.0041298484 0.055439975 -0.074626446 -0.06891098
-0.0054279133 -0.034379702 -0.059844606 0.046013467 -0.035444986 -0.021772366 -0.01241483 0.0059834323
-0.097304255 -0.06275725 -0.08487851 0.02181634 -0.0074934694 -0.08739061 0.051647786 0.030818306
-0.093146384 0.050382808 -0.0049043456 0.032270957 0.04692168 -0.04762177 -0.10014289 -0.016359815
0.0010037181 0.020646267 -0.07725099 -0.0433458 0.006174644 0.07989052 0.028229218 -0.05174935
0.062496167 0.060464364 -0.067486584 0.072468184 0.051379945 -0.053853974 -0.020581475 0.02775787

6.bias f4 [32]
00000000: 16e0 eb3d 3fe4 adbd 8de0 a4bd ae64 323d
00000010: e4e2 22bd 20ff 413d 9ac5 9abc 2cda 4ebd
00000020: 7823 fe3d 858b febc d8f5 333d 7d41 8b3d
00000030: ac61 163d b28e a63d 5e13 043d 4ae4 e23d
00000040: d02f 13bd f90b 6d3d 32ef 8abd 7ac3 013e
00000050: b3fa 953c 9d64 4a3d 5b56 853d 441a 90bd
00000060: a1ff a8bd 8208 993d 01e7 1a3d f6eb c33d
00000070: 7f47 a03d 66cf 6dbd 8a7e 09bd 075f bf3c
0.115173504 -0.084908 -0.08050642 0.043553047 -0.03976716 0.047362447 -0.018893052 -0.050501034
0.12409109 -0.031072387 0.043935627 0.067996 0.03671424 0.08132686 0.032245032 0.11078699
-0.03593427 0.057872746 -0.06783904 0.12672225 0.01830802 0.04941236 0.065106116 -0.0703626
-0.08251882 0.07472326 0.03781796 0.0956649 0.07826137 -0.05805912 -0.033567943 0.023360742

8.weight f4 [64, 32, 3, 3]
00000000: 6f59 033c 0220 053d ba00 2dbd ff71 d6ba
00000010: f3ea 12bc eb71 a0bc 63f3 4fbd 66f4 8a3c
00000020: 6b17 53bd e08b 923c 604d 4d3d be2d 3dbc
00000030: 8a87 323d 3e64 d53a 1e8e e73c b4b1 83bc
00000040: a6b7 6d3d f451 94bc a385 d53d 20b7 da3c
00000050: 7e9a 3e3d 1658 e8ba d619 7fbd 2e2e 933c
00000060: b72d 173d e2c8 cebc 8741 5b3b 0404 0cbd
00000070: d007 da3d f371 253e 456c e63a 6b2e 023e
00000080: 9f22 443e 24fa 253d b5ce c43d 4cfb 823e
00000090: ea0d a3bc 8235 bdbc bb35 be3b 26c5 8a3c
000000a0: e456 5d3d 9a45 6e3d 1c46 13bd 4402 a53b
000000b0: 9320 a23c 6f28 fa3c d6c2 96bd fddb c63c
000000c0: b3ae 343d 9ec6 4abd 4e21 69bd 12fe 643c
000000d0: 02d4 cfbc e1ac b3bd 77ba 83bc 0578 04bb
000000e0: ed4b 31bd e429 593d 3831 a13d 3fce 1f3d
000000f0: 630d 473d 65f0 b8bc 0908 b3bc 810b 3bbb
00000100: d6cf 1f3d c432 633d 452b 183d d442 19bd
00000110: a037 463d 967b 573d b430 523d 142c fc3c
00000120: 8cd8 cebc 855d 273d 233c 6dbc 8f96 7f3d
00000130: 6aaa 1c3d d572 4fbd cb68 d83c 3b81 b5bc
00000140: b6fa 113c df82 fabb c018 253d 3701 413d
00000150: 6bee 2e3c 817e 8a3d 7929 423d 53f4 8ebb
00000160: 2406 313d 163a 873d 3e0d e8bc 9b98 e03b
00000170: 86ad 173d f69d 2f3d dfd2 893d aea6 253d
00000180: 74e6 36bc e57a 503d 57df 28bd bdc3 9cbd
00000190: fe8e 80bd 1084 a5bc a60e efb9 f1f7 74bd
000001a0: 076f 97bc 16a3 a4bd f84d 943b 509b 44bb
000001b0: 5ffe 663c cee4 e5ba 245e 9e3c 62b6 cf3c
000001c0: 43d0 50bd f4a8 113c 9ec9 14bc 829f 9e3c
000001d0: 366f 79bc c3ad d6bc d42c a6bb eef0 2abd
000001e0: 7de0 0a3d 5d29 0c3c 3fde a6bd 2165 68bd
000001f0: d888 9a3c a78e abbd 968a eebc 1756 52bd
00000200: 4a00 76b9 5845 c2bc 8209 063c 34be 4dbd
00000210: c69c 59bd c53f 22bd e1f1 8f3c ba46 b2bc
00000220: f853 f6bc c83a 313d f2eb fcbc 7f76 423d
00000230: 3571 063d 18c1 90bc 9359 da3c 3403 2b3d
00000240: ac1c 6fbc 7d7d 543c f800 733b cbb0 b4bc
00000250: b895 4dbc a8e9 38bd b323 fe3c 511b 7a3b
00000260: df6c 493b b7e9 a1bd bb72 bfb9 dc76 a43c
00000270: efc7 1abb a8ad a33d af35 593c 2d18 87bd
00000280: 4e46 7b3d 1b83 bf3d 7623 133c 7f1d a6bc
00000290: f6cf 3cbd d7f4 30bd 16b5 1f3c accc c6bc
000002a0: 5c6d e8bb 0122 28bd 6caf 48bc 6e12 7a3d
000002b0: da0d 0c3e 3d0b be3c 9e18 323d 892a b83d
000002c0: 3088 d03d 76c4 de3d 0a9c b23d 1319 8abc
000002d0: 7706 e23b ce58 073e eace 113e a7cc 153d
000002e0: fdca 563d 2774 243e 235e dabb 6938 043e
000002f0: f31b 2e3d 6b78 323c 84d3 5f3c 7601 65bd
00000300: b48e 80bd 2c10 2fbd 7344 bb3c 9a2d efbc
00000310: 8f92 a63c 92e3 b5bc 60b7 aabd 4bdd 2abd
00000320: c072 54bd 194c ac3c e680 75bd 468e a6bd
00000330: c57d 50bd 33ed e23c ab1d a6bd 8050 f7bc
00000340: 411d 29bd eb31 d53b 6ea8 61bd 1381 5cbd
00000350: 5715 24bd b286 f93c 3aad b2bc bf61 64bd
00000360: d030 e5bb d0a2 043d 6b7f 643d 3d4c 41bd
00000370: ddfa d23c dd62 55bd 5210 3abd a909 eb3c
00000380: 71b7 17bd 1b05 243c 7af6 c73c bec4 453c
00000390: 7763 18bc 99d2 ef3c 41c3 ae3c 9d58 7ebd
000003a0: c77d 083d f0c6 babd a584 8b3c 4473 843c
000003b0: 00c2 c7bc 4605 d5bc 9c72 33bc 0369 7fbd
000003c0: 8c77 29bd 08b0 703c e5b9 3d3c 6510 81bd
000003d0: 5447 063d 0a35 15bc 2927 47bd f0f1 23bd
000003e0: 6243 92bd 3142 fc3c 8efa c03c 088d 35bd
000003f0: 1fa5 3abd b448 f9bb 8416 a1bd e8c0 953c
0.008016928 0.03250123 -0.04223702 -0.0016360878 -0.008967149 -0.01958557 -0.05076922 0.016962241
-0.051536005 0.017888963 0.05012262 -0.01154655 0.04358629 0.0016280485 0.028266009 -0.016075946
0.05803647 -0.018105485 0.1042588 0.026698649 0.046534054 -0.0017726447 -0.0622805 0.017966356
0.03690883 -0.025242273 0.0033455805 -0.034183517 0.10646021 0.1615675 0.0017579874 0.1271302
0.19153832 0.040521756 0.09609739 0.2558235 -0.019904096 -0.023096804 0.005804745 0.01693971
0.054037943 0.058171846 -0.035955533 0.0050356705 0.019790923 0.030536858 -0.07361381 0.02427482
0.04411192 -0.049505822 -0.056916527 0.013976591 -0.025369648 -0.087732084 -0.016080124 -0.0020213139
-0.0432853 0.053018466 0.07870716 0.03901505 0.04859675 -0.022575567 -0.021854417 -0.0028540792
0.039016567 0.055468336 0.03715064 -0.037417248 0.048392892 0.052608095 0.05131598 0.030782737
-0.025249742 0.04086067 -0.01447967 0.062399443 0.038248457 -0.05064662 0.026417157 -0.022156348
0.008909872 -0.0076449956 0.040306807 0.0471203 0.01067696 0.0676241 0.047402833 -0.004362622
0.043218747 0.06602876 -0.028326627 0.0068541295 0.03703072 0.042875253 0.067296736 0.04044216
-0.011163343 0.05089845 -0.04122862 -0.076545216 -0.062772736 -0.020204574 -0.00045596546 -0.059806768
-0.01848556 -0.08038919 0.004525896 -0.00299998 0.014098733 -0.0017539503 0.019332 0.025355522
-0.050979864 0.008890379 -0.009081272 0.019363169 -0.015224269 -0.026205903 -0.005071262 -0.041733675
0.033905495 0.008554784 -0.08147859 -0.05673707 0.01886408 -0.08376818 -0.029118817 -0.051351633
-0.00023460496 -0.023714706 0.008180978 -0.05023022 -0.053128026 -0.039611597 0.017571392 -0.02176224
-0.030069336 0.04326895 -0.030874226 0.047476288 0.032822806 -0.0176702 0.02665404 0.0417511
-0.014594238 0.012969372 0.0037079435 -0.022056958 -0.012547903 -0.045144707 0.031022882 0.0038163255
0.0030735058 -0.07905906 -0.0003651584 0.020076208 -0.0023617705 0.07992107 0.013257428 -0.06596408
0.061346345 0.09351178 0.0089806225 -0.020277737 -0.046096765 -0.043202247 0.009747764 -0.024267517
-0.007093115 -0.041048054 -0.012248855 0.061052732 0.13677159 0.023198718 0.043480508 0.08992488
0.10182226 0.10877316 0.08721168 -0.01685766 0.0068977433 0.1321747 0.14239088 0.036572125
0.05243968 0.16059934 -0.006664054 0.12912144 0.042507123 0.010892968 0.013661269 -0.055909596
-0.062772185 -0.042740032 0.022859788 -0.02919655 0.020333556 -0.02220324 -0.08335757 -0.041714948
-0.051867247 0.02103238 -0.05993738 -0.08132605 -0.050901193 0.027700996 -0.081111275 -0.030189753
-0.041287664 0.006506195 -0.055092268 -0.053834032 -0.040059414 0.030459736 -0.021811116 -0.05575728
-0.0069943443 0.032381833 0.055785578 -0.047191847 0.025754387 -0.052096236 -0.04542572 0.02869113
-0.037040178 0.010010983 0.024409521 0.012070833 -0.009301058 0.029275225 0.021333339 -0.062096227
0.033323076 -0.091199756 0.017031023 0.016168244 -0.024384499 -0.026003491 -0.010952618 -0.062356006
-0.041373774 0.014690407 0.011579965 -0.06301955 0.032782868 -0.009106884 -0.04862133 -0.04002565
-0.071417585 0.030793281 0.023556974 -0.04432395 -0.045567628 -0.007607544 -0.07865623 0.018280461

8.bias f4 [64]
00000000: ea08 913d 170b 2cbd ed78 0fbc 079f 073c
00000010: 189a 09bd 15ba be3d 0166 8f3d d85b 94ba
00000020: 75e0 69bd 4ac6 75bd b938 57bd a2b7 bc3b
00000030: 4de0 933c 1986 3a3d 8dfb b33d 4eed 3bbc
00000040: 0dc0 2e3c 159a cdbc 6241 373d 71a1 35bc
00000050: cc5a 73bd 70dc 95bc 8c1c 043d 588d 74bd
00000060: daee 76bd 9206 ae3c f6b9 4b3a d5a8 ae3d
00000070: 4299 533d 067b 3bbd a9fe ae3d b40d 2d3d
00000080: 37bd bebc 603a 873d f7dc 0cbd 7e76 6abd
00000090: 40c1 72bc 2ae5 49bd 5ce2 7ebd bf45 d53b
000000a0: 9ec7 1bbd 032c 863d 8aa1 26bc 673a ad3a
000000b0: 1fae 01bd ff00 803d 67ac 0bbb 294a b13c
000000c0: 458d 2abc 68f8 d73d 7ef7 f83a f748 c4bc
000000d0: 7e4c 653d ae7f 133c 198d a63d 1998 77bd
000000e0: c921 01bd dae7 20bd 447d 043d daee 5dbd
000000f0: a14e 40bd 88b4 2a3d 2a77 a43c d109 fabc
0.07081778 -0.042002764 -0.008756858 0.008277661 -0.03359422 0.09312836 0.070018776 -0.0011318875
-0.057098825 -0.060003556 -0.05254433 0.0057591954 0.01805129 0.04553804 0.08788214 -0.011470152
0.010665906 -0.025097886 0.04474009 -0.011085854 -0.059412763 -0.01829359 0.032253787 -0.05970511
-0.06028638 0.021243367 0.0007771546 0.08528296 0.05165983 -0.04577162 0.08544666 0.042249396
-0.023283584 0.06602931 -0.034390416 -0.05724191 -0.014816582 -0.049290814 -0.062227592 0.0065085585
-0.038032167 0.06551363 -0.01017035 0.0013216258 -0.031660195 0.0625019 -0.0021312477 0.021641808
-0.010409658 0.105454266 0.0018994657 -0.023960574 0.05598115 0.009002609 0.08132381 -0.060447786
-0.03152636 -0.03928361 0.032346025 -0.054182865 -0.046949986 0.041676074 0.020076353 -0.030522259

10.weight f4 [2, 64, 1, 1]
00000000: a3db 00be cb2d 7e3d e9ba 883d 06e7 ea3d
00000010: 682b 77bd 7bf9 03be 2b52 31be 2f79 dfbd
00000020: 4748 6abd c4a8 9e3d 9704 9abd 74f1 563e
00000030: cf31 3c3e db91 bf3d e52e 92bc 7770 ae3d
00000040: d3dc ffbd 0df5 0ebc a161 6b3d 3d77 5b3d
00000050: 65a8 8e3c ae96 8e3d c447 c33d dee9 49bb
00000060: d01e 1fbd 7003 c53d c096 843d be8c 0ebe
00000070: 3ba4 bfbd 6474 a6bc b253 b83d 7e4a e93d
00000080: 0dab f2bd b415 45bd 9885 67bc d59a 92bc
00000090: 3e32 713b a961 453d 1f0c 133d ca8c eebd
000000a0: f016 b13c 2c21 d33c 3ce3 453d 97b7 033d
000000b0: abea 903d 2b47 c5bd 723a 04be dcdc b63d
000000c0: 179d f5bd de35 8dbd a6f3 0dbe 0cd8 58bd
000000d0: 8291 07be 5737 853d d1a0 403d 11d3 763d
000000e0: f8d5 fabc 4510 09bb 8967 87bd 86db fabd
000000f0: 1c8b 5a3d 440b a43d c476 3c3e 5a22 bc3c
00000100: b1ab 1cbe 2871 453d f4bd 2c3e 373e bdbd
00000110: 4347 c2bb a55b 15be 4ec1 17bd d514 c3bd
00000120: 2c92 2cbd e762 e53d 0d81 c33c 7acc 40bc
00000130: 4e6f f8bc 3cf2 383e 91bc 93bd b83c f7bd
00000140: 6370 cc3d 377b 4bbd 5644 d8bd 0d2f c33d
00000150: 5ce2 e5bc 0f17 d13d 3ac4 003e 42f9 3abd
00000160: cdd9 e73d b803 843d 02a7 383d ed71 02bd
00000170: 03b3 e83d f755 89ba 612c 2ebe 936b cc3c
00000180: 8d2b 5f3a f4ff 5cbd c049 5e3d acd0 9bbd
00000190: 217c b1bd 0499 e2bd 9c92 45bd bf4a 273d
000001a0: bbf7 8d3d 9d78 343e afcd 1d3e 3277 c33d
000001b0: 93f8 dfbd 6f44 b7bd 1c25 97bd 55c8 943d
000001c0: d72e eb3b 2e6b 25be 448b bbbd 2902 d7bd
000001d0: d52e 9e3d 5304 623d 6e47 cf3d adcc c0bc
000001e0: 0513 533d a0ba 1e3d 8b6b cbbd 4cfb dabd
000001f0: f037 ae3c 0beb 053e 43ca e73d cb6a adbd
-0.12583785 0.06205539 0.06676275 0.114698455 -0.06034413 -0.12888138 -0.17316501 -0.10911786
-0.057197835 0.07747033 -0.07520407 0.20990545 0.18378375 0.093539916 -0.017844627 0.08517545
-0.12493291 -0.008725417 0.057466153 0.05358051 0.017414281 0.069623336 0.095351726 -0.0030809562
-0.038847744 0.09619796 0.06474066 -0.13920876 -0.09357496 -0.020319171 0.090003386 0.113911614
-0.118490316 -0.0481164 -0.014130972 -0.017896095 0.0036803628 0.04818884 0.03590023 -0.11647947
0.021617383 0.025772654 0.04831241 0.032157507 0.07076009 -0.09632715 -0.1291292 0.08928844
-0.11992853 -0.0689504 -0.13862476 -0.052940413 -0.132391 0.06504696 0.047028366 0.060259882
-0.030619606 -0.0020914238 -0.06611545 -0.12248902 0.05335532 0.08009961 0.1840468 0.022965599
-0.1529987 0.048203617 0.16869336 -0.09240382 -0.005928905 -0.14585741 -0.037049584 -0.09525458
-0.042131588 0.11200505 0.023865247 -0.011767501 -0.030326512 0.18061155 -0.072137006 -0.12072128
0.099823736 -0.049678054 -0.10559909 0.095304586 -0.028062038 0.10209476 0.12574854 -0.045647867
0.11320839 0.06446022 0.045081146 -0.03184693 0.11362269 -0.001047789 -0.17009117 0.02495364
0.00085132645 -0.053955033 0.054269552 -0.076081604 -0.08666254 -0.11064342 -0.04823552 0.040842768
0.069320165 0.17624135 0.15410493 0.09544219 -0.10936084 -0.089485995 -0.07380125 0.07264773
0.0071772146 -0.16154167 -0.09157422 -0.10498459 0.07723776 0.055179905 0.10121046 -0.023535097
0.05153181 0.0387522 -0.099326216 -0.10692462 0.021266907 0.13077943 0.11317875 -0.08467635

10.bias f4 [2]
00000000: cbeb ce3d 10de d8bc
0.10103568 -0.026473075
