checkpoints/model_2.pt (torch, 103423 bytes, 12 tensors)

0.weight f4 [4, 2, 3, 3]
00000000: 4c23 cf3c e416 a1bd b253 5d3d 3f17 68be
00000010: 144f 653e 9e18 193e 06ce d93d 9b72 c53b
00000020: 5c17 f83d d2aa 593e 9291 02be 5c6c 573c
00000030: b33d 5cbe b16b 693d 1385 123e f0f9 46be
00000040: a136 7ebe cf35 1cbd 5ec1 483e 94b1 d8bb
00000050: 759f 44bd 25b0 f23c c45e 62be a9c9 a53d
00000060: 673f 98bd 78dd 683e 9877 f4bd 1fa6 64be
00000070: ab7a 983c 717c 3b3e 78d4 d83b 06ed 11be
00000080: b1df b83c 4c4d 2e3e c7b1 1b3d cab8 1cbe
00000090: 9ef4 4ebe 6d11 05be 26dd fd3d ef41 bfbd
000000a0: a2c3 163b ace6 483e 0876 133d c66f 6a3e
000000b0: 2f02 3ebe b34b 083c ec6a 55be 0456 5c3d
000000c0: 480b 293d 3dcb 97bd c067 7fbe 19db be3d
000000d0: 8d4c 05bd e3eb dfbc 8b0d a3bc 7e36 73be
000000e0: 23aa e6bd 0460 0f3e 7f28 d93d c6cf db3d
000000f0: 0b3a f0bc 57cc 493e 3909 1fbe 5791 1ebd
00000100: 699c 83be 8867 fa3d 10e0 7dbe 7919 563e
00000110: 5280 74bd fece fe3c 1a04 743d 67a7 cd3d
0.025285386 -0.07865694 0.054034896 -0.22665118 0.22393447 0.14950797 0.10634999 0.006025625
0.121138304 0.21256569 -0.12750843 0.0131483935 -0.21507911 0.05698747 0.14308576 -0.19431281
-0.24825527 -0.038137253 0.19605014 -0.006612966 -0.048003633 0.029625008 -0.22106463 0.08095104
-0.07433968 0.22740734 -0.11936873 -0.22328995 0.01861318 0.1830919 0.006617125 -0.14250574
0.022567602 0.17021674 0.03801134 -0.15304866 -0.20210502 -0.12994929 0.12395696 -0.09338748
0.002300479 0.19619244 0.036001235 0.228942 -0.1855552 0.008318829 -0.20841569 0.05379297
0.041270524 -0.074118115 -0.24941921 0.09319133 -0.032543708 -0.02733416 -0.019903919 -0.23751256
-0.1126292 0.14001471 0.10603427 0.10732989 -0.029324552 0.19706856 -0.15530862 -0.038712826
-0.2570527 0.12226778 -0.24792504 0.20908155 -0.05969269 0.031104561 0.059574224 0.10041695

0.bias f4 [4]
00000000: ceef b5bc ad67 c1bd 4242 8a3e cdb0 6abe
-0.022209074 -0.09443603 0.27003676 -0.22919007

2.weight f4 [8, 4, 3, 3]
00000000: fba8 3cbe 7213 2ebe 189b 763d 5533 8ebd
00000010: 0d29 4cbe 2aa6 1cbd ae30 bf3d c3e7 763d
00000020: e736 653d 18c8 403c 9d47 1e3e c6b6 25bd
00000030: df2c f8bd a1d1 aa3d c4aa 383d fd15 0d3e
00000040: c4dc aebd fcf1 be3d 31a5 003e 281a 8e3d
00000050: b50d e2bd 6d38 a03c 7226 a7bd 631c 193e
00000060: c715 203e c405 0abe 1727 1a3e ab9f f93d
00000070: 6853 2ebd e90d b7bd 6aba 70bd feec 323c
00000080: 5e3b bf3d 500e 57bc 7811 0dbb a002 153e
00000090: 22b3 0abe 6850 123e 4060 163e b25e 283e
000000a0: fd30 30bd b334 7c3d e503 2cbe 46fe 0f3e
000000b0: 9409 18be cf49 d43d d217 69bd d313 203e
000000c0: c449 70bd 6b12 2d3e bea3 033d 3344 efbd
000000d0: cb56 22be aa7f c53d ac7f e33d 634f 87bd
000000e0: 202e 63bc 9a58 3dbd 0ffe 173e fefe bfbd
000000f0: dfca 4ebd bdd2 2d3e 97da 3b3e b9f9 d53d
00000100: 40b7 30be 6839 413b 5bb5 113d 5f92 ee3d
00000110: e0b1 313d 32e3 e5bd d38f 223c 49eb cb3c
00000120: c806 67bd d552 0d3e 2676 913c b772 ccbc
00000130: 3498 623d c0ac 983d ebbb 47bd ac88 8dbd
00000140: 8836 14be c135 ea3d 3ebf 3c3d 99b2 eb3d
00000150: 139c 33be bcf9 72bd 309f abbd 6420 573c
00000160: 4495 f5bd 72f4 16be 2820 473c dea5 2dbb
00000170: 1547 57be 87dc 183e c504 73bd 201d 42be
00000180: 5500 883d b1d5 9ebc 2cb0 983d f8c3 40be
00000190: 3b01 093e 39d7 1ebe 37f5 8fbd 7a60 4cbe
000001a0: 740d 0d3e a8a5 913d f29c d2bd 24b7 15be
000001b0: 8a1f 1d3e a8c9 823d b4e9 1fbe fedc 993d
000001c0: e1fd 8c3c 739b 36be cd6a 3dbe e37c 17be
000001d0: 23b7 47be 5d6f 963d 85eb 1d3c a89f b8bc
000001e0: fec5 b6bc 56ba 5e3d aecc e5bd f637 9f3d
000001f0: a321 10be 4b7b 32be 5d46 e2bb 309b 5dbd
00000200: 834b c53d 6eb1 113e 5a41 713b 6477 dc3d
00000210: d9d0 2a3d 1a25 353d 24b1 8c3d 96bb 863d
00000220: 5154 27be deda 05be 592b b23d 685f 903d
00000230: 520c 103e 043b 523d 3135 ca3d 3a17 1d3e
00000240: 2244 1dbd 2f24 babd 5dfd e83d 4e3e dfbc
00000250: a4b5 093e 45b8 273e 2113 2c3d a540 aa3d
00000260: f9b7 dc3c 1c85 e53d 1946 6c3d ea0d 3dbe
00000270: 1616 073e 3f3a f9bd c786 cebd 4867 debd
00000280: 47f3 15be 56cd 113c e983 12be 093c 423d
00000290: 2859 603a a85f 053e 5d5a cebc aef7 e93c
000002a0: 5018 643d e47b c13d 5852 33bd 1b16 0bbe
000002b0: 14cd 4cbd 5676 1ebc 27bd e43d 5438 eebd
000002c0: b63f b93d 6597 33bd 5c36 24be b6e7 debd
000002d0: b65f c23d bca2 27be 2944 543d ffb5 e1bc
000002e0: 1c83 1bbe 054c 273d 6e46 b1bd 9a3f 8b3d
000002f0: 7455 09be 1609 bc3d 7692 743c abbf 38be
00000300: 4846 91bc fd83 88bd 7c33 743b 2de1 c4bd
00000310: 2322 ccbd e7bc ebbd 0605 343c 2c56 ad3d
00000320: 6468 67bd 4341 433e c895 6e3c 35e5 753d
00000330: 71b8 c13d dd98 2f3d 79df 2c3e 515d 0ebe
00000340: 2977 3abe 9790 50be 2364 2a3e ce22 f7ba
00000350: 5955 16be 886b a1bd 3c6f c33d 40d6 6dbd
00000360: a8c4 743d 9cd5 0d3d a89d b83d 75b4 a13d
00000370: 9b29 2abd 1e10 a7bc 0545 df39 fd10 0f3e
00000380: 257d 82bd af33 763c f629 5b3d bbef dcbd
00000390: e53e 423d 8323 6abc b86e 793d a0ac 323e
000003a0: affe a33d 8e3c 083c 1943 403e 1e94 bcbd
000003b0: b306 373d 9676 243e 6652 293e b96c 093d
000003c0: c444 613c 4ada e9bd e2bf 393e bff3 d7bc
000003d0: a978 7abd 6b2c 033e f0f9 75bc 8398 c83d
000003e0: ba69 cabd 9d14 2f3e 56c2 323e c4a5 5abd
000003f0: c9ba e1bd bb53 f33d 4c07 2a3e 7fe4 c13d
-0.18423836 -0.16999605 0.060206503 -0.069433846 -0.19937535 -0.038244404 0.09335457 0.06027962
0.055960562 0.011766456 0.15457006 -0.04045751 -0.121179335 0.08340765 0.04508473 0.13777919
-0.085382015 0.093234986 0.12563016 0.06938583 -0.11037771 0.019558156 -0.0816163 0.14952235
0.15633307 -0.13478762 0.15053974 0.121886574 -0.04256001 -0.089382 -0.05877153 0.010920761
0.09337495 -0.013125971 -0.0021525305 0.14551783 -0.13544896 0.14288485 0.14685154 0.16442373
-0.04301547 0.061573695 -0.1679836 0.14061841 -0.14847404 0.1036564 -0.056907482 0.15632562
-0.0586641 0.16901557 0.03213858 -0.1168293 -0.15853421 0.096434906 0.11108336 -0.06606939
-0.0138659775 -0.046227075 0.1484301 -0.09374808 -0.05048644 0.16974922 0.18345104 0.104480214
-0.17257404 0.002948368 0.035573345 0.11649012 0.043382525 -0.11224975 0.009921986 0.024892466
-0.05640295 0.13801129 0.017756533 -0.024957044 0.055320933 0.074548244 -0.048763197 -0.06910834
-0.14473927 0.11436034 0.04608082 0.11508674 -0.17540006 -0.059320197 -0.08379972 0.013130281
-0.11991361 -0.14741686 0.012153663 -0.002649657 -0.2102321 0.14927875 -0.05933072 -0.18956423
0.06640688 -0.019389005 0.07455477 -0.18824756 0.13379376 -0.15511788 -0.07029193 -0.19958678
0.13774663 0.071116745 -0.10283841 -0.14620644 0.15344062 0.06386119 -0.15616494 0.07512854
0.017210903 -0.17832737 -0.18497773 -0.14793734 -0.19503455 0.073454596 0.009638672 -0.022537068
-0.022311207 0.054376923 -0.1122068 0.077743456 -0.14075331 -0.17429845 -0.0069053606 -0.054103076
0.09633543 0.1422784 0.0036812634 0.107649595 0.04170308 0.044224836 0.068697244 0.06578748
-0.16340758 -0.13071772 0.08699674 0.07049447 0.140672 0.051325813 0.09873427 0.15340891
-0.038395055 -0.09088933 0.1137645 -0.027251389 0.13448197 0.16378887 0.04201043 0.08313111
0.026943194 0.11207029 0.057684038 -0.18462339 0.13192019 -0.12169313 -0.100843005 -0.10859543
-0.14643584 0.008899054 -0.14308132 0.047420535 0.0008558207 0.13024771 -0.025189573 0.028560486
0.05568725 0.094474584 -0.0437797 -0.13582651 -0.050000265 -0.009671768 0.111688904 -0.116318375
0.09045355 -0.043845553 -0.16036361 -0.10884039 0.09490912 -0.16370672 0.051822815 -0.027552603
-0.15186733 0.040843982 -0.086560115 0.067992404 -0.13411504 0.091814205 0.014927497 -0.18041866
-0.017733708 -0.066658 0.0037262132 -0.09613261 -0.099674486 -0.1151064 0.010987526 0.084637016
-0.05649604 0.19067864 0.014562078 0.060033042 0.094590075 0.04287039 0.16882123 -0.13902785
-0.18209518 -0.20367657 0.16639762 -0.0018854977 -0.14680995 -0.07881838 0.09542701 -0.058065653
0.05975786 0.034627542 0.090144455 0.078957476 -0.041543584 -0.020393427 0.00042585298 0.13971324
-0.06371526 0.015026971 0.053506814 -0.107879125 0.047423262 -0.014290693 0.060896605 0.17448664
0.080075614 0.008315219 0.18775596 -0.092079386 0.044684123 0.16060862 0.16535339 0.03355095
0.013749305 -0.114185885 0.18139604 -0.026361344 -0.061150227 0.12809913 -0.015013203 0.09794714
-0.09883447 0.17097707 0.17456946 -0.053380743 -0.110219546 0.11881205 0.16604346 0.0946741

2.bias f4 [8]
00000000: 7cc7 03be f72d 3bbd 2ae1 6e3b db76 4a3e
00000010: cccb 4e3d 2894 e4bc 30fb 863c 3ea6 c5bd
-0.12869066 -0.045698132 0.0036450126 0.19771902 0.050487325 -0.027902678 0.016477197 -0.09650849

4.weight f4 [16, 8, 3, 3]
00000000: dc4c 97bd 7b73 77bd 1caa e7bd 90c0 82bd
00000010: ebdd 9f3d 17ed 983d 53c4 533c e3e4 7bbd
00000020: f361 8fbc d524 17be 3cb6 a33d 280c 1fbb
00000030: c6be de3c 9f87 10be 8f25 fb3d 3261 b6bd
00000040: 87d9 7b3d 23bd 08be f95a 2dbe 2ffd efbc
00000050: 4f42 103b e76e b03b 2bd5 9fbd 62f9 a63d
00000060: 797e 18be 151e d2bd dcbb 773d f837 353d
00000070: ccf3 093e 130b 923c 62b7 f7bc 9ae0 84bd
00000080: 585f 213d bb22 993d 8397 abbc 7b4e c5bd
00000090: 6a4b b43d 86c0 aabd 38bc cb3c 732a c2bd
000000a0: 4367 1bbc b631 22be 8563 093e c4dc ddbd
000000b0: 37e8 993d fbac 25bd 7768 e23d cbad 38bd
000000c0: 6807 c53d c136 323d 86fa e43c 2bc1 abbd
000000d0: d80d c73d 781b f33d 5ed7 753d 5c65 de3d
000000e0: dca2 a0bd b009 a33d bb1a efbd b369 e33d
000000f0: 16a9 ecbb 0426 66bb 1f76 55bd a828 9f3c
00000100: 4f50 053e f538 0ebd 71ae 153e 2492 44bd
00000110: 2e48 b73c 3425 9d3c c7c0 c63d 2a22 be3d
00000120: 8397 393d 45c4 c8bd a1bc 17be 9703 90bc
00000130: 9f84 05be d4e4 babd ba80 c23d 3fe3 a9bd
00000140: 5a5c 97bd 0e10 f5bc 8df8 ecbd f853 873d
00000150: 7483 4bbb 6fdd 5c3c a437 11be 9533 babc
00000160: c8a4 0e3d 0f03 c4bd 89d6 2c3e cbc6 583c
00000170: 9691 22bd bbfd 8b3d 3669 d7bc d9a2 31bd
00000180: 794a 6d3c 1089 913c a543 adbc 748b 113e
00000190: 7d2e b7bc fbba 52bd ac44 19bd bc04 1d3e
000001a0: 3a1b 23bd bd6b 353e 41c2 bb3b 2672 223e
000001b0: 523a 89bd 8e40 e43c 6276 e1bd 013d 1bbd
000001c0: 92b5 a6bd b544 acbd 413a ad3d 8f07 a13d
000001d0: d347 223d 3123 b3bc f7ac 74bc 9d23 293d
000001e0: 5f00 c23d aee3 183e 1643 993d 7619 473c
000001f0: a8d8 dc3d 9f6f ed3d ecfd 0e3d 0191 46bd
00000200: a49d 94bc 3bd7 743c 9585 e0bd 9d1f d13d
00000210: 95cd 8fbd a930 eb3d 6576 cabc a35c 67bd
00000220: 571d b03d a2a2 863d badc 94bd 24a4 ec3d
00000230: 2130 bf3d 360b 323d 153f a83d 782f a7bb
00000240: 641b b5bd eff7 eebb b40d 623d 1383 db3d
00000250: 693a 94bd 6808 cdbd 0596 e73d 6b90 223d
00000260: d111 afbd ecc3 66bc 86f1 d7bd 50cf 08bd
00000270: 6c1c 4d3d 8068 8eb6 6af8 9dbd 8312 efbd
00000280: 86b8 243c a0a3 e33c a7c1 2eba 49b5 8f3d
00000290: 4547 0f3e 91fe 0bbd 628d 243e cda8 103e
000002a0: 2119 033e d047 ee3d 011a 443d c23d f6bc
000002b0: 1cec 053e 99f8 023e 1100 6dbd 9371 a13d
000002c0: f678 4b3d 6d7c 383e 647c 903d 3c36 0c3d
000002d0: 7e18 633d 4073 f53c b62e 9c3d 2116 e03d
000002e0: 39be 43bd 763d af3d 1274 553d 0a66 8dbb
000002f0: 6001 903d fc61 563d 0e5d aabc 01cc c3bd
00000300: aff1 2c3e de95 e23d c5ac ba3c 7679 9c3d
00000310: b7fa b8bc 04de ca3d 07ca a93d 7cde 663d
00000320: 4bc5 013d c8bc a7bd 6edc 91bd 6718 63bd
00000330: c82c 1b3e 2a2e 633d a6f5 0b3d 9570 99bd
00000340: 833e 9bbc 67b4 a9bd a583 cfbd 6041 9bbd
00000350: cfbe 9d3c d69b b1bd 8277 df3d 9f5a e13d
00000360: 58c2 b63c 9915 23be 26a0 00be f8e9 8cbb
00000370: de1c f5bc 5507 fe3c 2480 093d 080f 4e3d
00000380: a633 903c 0771 22be bc24 31bd 089c ecbd
00000390: 1b7e 53ba 657e 09be aacf c5bd e396 e8bd
000003a0: dde0 3dbd 8b15 b3bd c306 00be 3f2b b3bd
000003b0: 5aac 633c dd37 463d e8bd e4bd 551c c3bd
000003c0: d78f 583d d19d f63c d760 893c 0b4f 043d
000003d0: 9dc1 bfbd cbff f63d 4dea c0bd 1d3e e7ba
000003e0: 8eb9 cd3d e495 c13d 8c8f 3bbd 12cc ef3b
000003f0: d970 f2bd 9a56 62bb 59dd 01be 2aa5 22bd
-0.07387707 -0.060412865 -0.11311743 -0.06384385 0.07805999 0.07467096 0.012925225 -0.06149758
-0.01750276 -0.14760144 0.07993743 -0.002426872 0.027190577 -0.14114235 0.12263023 -0.08905257
0.061486747 -0.133534 -0.16929235 -0.029295532 0.002201218 0.0053843143 -0.078043304 0.08153035
-0.14891995 -0.10259644 0.06048189 0.04424283 0.13471907 0.017827546 -0.03023881 -0.06488152
0.039397568 0.074773274 -0.02094627 -0.096341096 0.088034466 -0.08337502 0.024870023 -0.09480753
-0.009485069 -0.15839276 0.1341687 -0.10833123 0.075149946 -0.04044817 0.11055081 -0.045087617
0.09620553 0.04350925 0.02795149 -0.08386453 0.09719437 0.118704736 0.060019843 0.108591765
-0.07843563 0.07960832 -0.1167502 0.11104145 -0.007222305 -0.0035117874 -0.052114602 0.019428566
0.13018917 -0.034722287 0.14617325 -0.047990933 0.022373285 0.019182779 0.09704738 0.0928386
0.04531051 -0.098030604 -0.1481805 -0.017579837 -0.13038872 -0.09125677 0.09497209 -0.08295297
-0.073906615 -0.029914882 -0.11570845 0.06607813 -0.0031053694 0.013480528 -0.14181381 -0.022729674
0.034825116 -0.09570896 0.16878714 0.01323099 -0.039689623 0.068355046 -0.026295286 -0.043368194
0.014483088 0.017765552 -0.02115042 0.14213353 -0.022361035 -0.05144785 -0.037419006 0.15333837
-0.039820887 0.1771688 0.005729944 0.15863857 -0.06700577 0.027862813 -0.11008908 -0.037899975
-0.081401005 -0.08411542 0.08458377 0.0786277 0.03961928 -0.021867367 -0.014933816 0.04129373
0.09472727 0.14930603 0.07483499 0.012152066 0.107835114 0.11593556 0.034910128 -0.04847813
-0.018141575 0.014943893 -0.10962979 0.10211108 -0.070216335 0.114838906 -0.024714658 -0.05648483
0.08599346 0.065739885 -0.07268663 0.11554745 0.09335352 0.043467723 0.08215157 -0.0051020943
-0.08843115 -0.0072927396 0.05518885 0.1071836 -0.07237703 -0.10011369 0.11307911 0.03968851
-0.0854832 -0.014084797 -0.10544114 -0.033400834 0.050075933 -4.244095e-06 -0.07713397 -0.11673453
0.010053759 0.027787983 -0.00066664297 0.07016999 0.13992031 -0.03417832 0.16069558 0.14126892
0.12802555 0.11634791 0.04787636 -0.030058745 0.1307835 0.12790145 -0.05786139 0.07882991
0.049675904 0.18016215 0.07054976 0.03423141 0.05544328 0.029962182 0.07626097 0.10941721
-0.047788832 0.085566446 0.052112646 -0.0043151425 0.07031512 0.05233954 -0.020796325 -0.09560395
0.1688907 0.11063741 0.022787461 0.07640354 -0.022580488 0.09905627 0.08290487 0.05636452
0.031682294 -0.08190304 -0.07122122 -0.055443194 0.15153801 0.055463947 0.034169815 -0.074921764
-0.018950706 -0.08286362 -0.10132531 -0.07580829 0.019256024 -0.086723015 0.10911466 0.11003613
0.022309467 -0.15926208 -0.12561092 -0.004300352 -0.029920992 0.031009356 0.03356947 0.050307304
0.017602753 -0.15863429 -0.043247923 -0.11553198 -0.00080678024 -0.13427122 -0.096587494 -0.11356904
-0.046357024 -0.08744343 -0.1250258 -0.08748483 0.013896072 0.04839312 -0.11169034 -0.09526888
0.05287155 0.03010455 0.01676981 0.032301944 -0.09363101 0.120605074 -0.09419689 -0.0017642413
0.100451574 0.094524175 -0.045791194 0.0073180282 -0.1183793 -0.0034536482 -0.12682094 -0.039708294

4.bias f4 [16]
00000000: 7fa7 77bd 7644 3e3e 51b7 a23d 1249 803d
00000010: 587a f6bd f71f 51bd 06da b4bd 7a39 cf3d
00000020: 1d0e 7e3d 12ce 093e c918 2c3e 3569 3fbd
00000030: 0132 df3d c4fd c4bd 4d78 2e3e 0a17 543d
-0.06046247 0.18580803 0.07945121 0.06263937 -0.12035054 -0.051055875 -0.08830647 0.10118385
0.06202518 0.13457516 0.1680633 -0.046731193 0.10898209 -0.096187145 0.17038079 0.051779784

6.weight f4 [32, 16, 3, 3]
00000000: 7cde b7bd 9230 54bd f46c 183c 1af9 1ebe
00000010: a0cd 85bd ccc1 dbbd 34aa 453c cfb5 96bd
00000020: 91ac 52bd ec53 df3c 469f b53d d3d0 963d
00000030: 36df a63d 3d10 c33d de9e d93d 1846 f03d
00000040: b460 853d 84f8 e43b dc79 943d f549 20bd
00000050: fada 7e3d 4163 9a3d 65e7 cf3d d56f 1dbd
00000060: bea6 ab3d bbfe 843d 4d03 093e 8112 80bd
00000070: 48c7 bdbd f52a 2e3d 83a9 f6bd c246 b83c
00000080: e63c 44bd 1e58 533b b00c 183d 523b fd3a
00000090: b3ee 163d 61b9 cebc 007a afbc 36cd 84bc
000000a0: 329e 363d d8b7 4c3d db11 ef3c 4861 01bd
000000b0: 375e 153d 8fbe 85bc b1af 3bbc 3270 5c3d
000000c0: ed4c 843c 61dd 89bd b2e8 acbd b846 2dba
000000d0: a27c 90bc 6837 22bd b040 e03c 2225 8bbd
000000e0: 00f7 813d 1878 69bd 2bd2 023c 6b1d d1bb
000000f0: 50c3 193d 93d3 97bd be3d 43bd 9f92 383c
00000100: 186c e43d 2fa8 683c 9799 893c fd64 953b
00000110: 8664 a0bc 67b7 123d 5fd6 3b3d bc31 1e3b
00000120: ead5 02bd 9b56 f2bc c645 b93d 1218 323d
00000130: 1bbe 4a3d 77d2 9f3c 3cd8 ec3c 10a9 ee3c
00000140: 0d99 34bc f26e 8e3d 376a 16bd 20c9 583d
00000150: 4852 673d 3d2a 1ebd a4ef c43d d0f2 bc3b
00000160: 5b07 e63c 2217 123e 8695 233d a813 433d
00000170: 9c3a 163e a2f5 6f3d a97f e53d e374 003e
00000180: ac71 e53d 2251 2b3d bc5a 4e3d ecb5 88bd
00000190: bd52 803d 507b c33d d2e9 743d 35e6 a2bc
000001a0: 0458 42bd d459 98bc 02d7 a23d 1bed a83d
000001b0: 6d1f 8d3c 50a7 213d 9ad4 9b3d 2383 b23d
000001c0: 4780 403d e2af c33d f545 0e3e 94b5 273d
000001d0: b737 46bc a0c9 88bc 8670 973c 4e58 19bd
000001e0: 034f 80bd 0b0f 7f3d 4028 61bc a229 a8bd
000001f0: 7b44 c1bc 0c98 87bd 6274 453d a16b b93d
00000200: a8ad 103e d9f6 f43d f454 303d 80f1 113e
00000210: 04f1 0a3e 36d4 a63a eafe 843d 51f8 8b3d
00000220: 75f9 a43d 4378 3cbc 05c7 503b 27b3 10bb
00000230: 5d52 d83c a285 913c 0c1a a83d e352 cf3d
00000240: 90c4 783d db4a 9dbd 1e08 453d 1b09 febc
00000250: 70a5 e53c b649 73bc 8663 2e3d d6db de3c
00000260: 9be1 a83d 0360 773d 48a7 9c3d 0b0f 6abc
00000270: 1063 2abd 901c 90bd 2027 8dbd e62a 96bd
00000280: 0b8b d6bc 0e85 8c3d c670 66bd 8cc6 99bd
00000290: 8ba9 f13c 080c 29bd 3b02 fabc fb23 f5bc
000002a0: 7fcf a33d 501d 933d 5ac2 9d3d 3038 71bd
000002b0: 33e9 183d 56b9 9f3c 6641 e5bc 2baf cdbc
000002c0: d030 64bd c823 0d3d 403f 533d ee25 1ebd
000002d0: 4ba4 66bd eb09 9dbc e67e 373d d8ea 40bd
000002e0: 56fc f0bc f647 4d3c 6e48 5b3d 3673 2abc
000002f0: 560f 273b e8fe 373d 7b9a 8fbc 0784 a0bd
00000300: 0827 993d 0b75 743c f6ba 713d 40ac 083d
00000310: 38fa 4abd 203c 6abd f0ce 2a3d 36b8 8fbd
00000320: f0a5 073d 6b02 193c 536c 3cbd 4eeb 723d
00000330: 7014 913d b6c4 783c 5fea 913d 6e5a 8b3d
00000340: 20ec 92bc 200d 3fbd aba3 e93a 209d 023d
00000350: 6b3b c13c 8830 9a3d 769b 65bd 1bd7 4bbd
00000360: 56b1 6a3c bbd1 0cbd 8e78 25bd 8f1d 813d
00000370: c32e 11bd f65b b2bc 2b95 c13b ab10 c43b
00000380: e041 9fbd 1bda 2fbd a703 85bd 3eb2 2a3d
00000390: 8b1e 493c ca8f 8abd f238 923d bedb 4e3d
000003a0: ec6a 96bd c7c9 8f3d f6cf 763c ae22 563d
000003b0: 56f9 883d 8642 e3bc b4be a4bd d650 6d3b
000003c0: 4648 a93c 5e90 263d e398 6bbd 5e8b 31bd
000003d0: ab54 ca3b a49d a33d f640 e73c 20f7 53bd
000003e0: fbfb 7f3d 7ba9 773d 6836 8abd 336a 943d
000003f0: b4cc 913d cbe6 0abd ab54 2aba 1b44 433d
-0.089779824 -0.051804133 0.00930332 -0.15524712 -0.065333605 -0.10730323 0.012064505 -0.07358896
-0.051434103 0.027261697 0.088682696 0.07364049 0.08148043 0.095245816 0.10626005 0.11732119
0.06512585 0.006987633 0.07249805 -0.03913303 0.06222055 0.075384624 0.10151557 -0.03843673
0.08381413 0.064938985 0.13380165 -0.06253529 -0.092665255 0.042521436 -0.120440505 0.022494677
-0.04790964 0.0032248567 0.037121475 0.0019320047 0.036848735 -0.02523488 -0.021420479 -0.016211133
0.04458446 0.049980015 0.029183319 -0.031586915 0.036466803 -0.016326217 -0.011455462 0.053817935
0.016149962 -0.06731678 -0.084428206 -0.0006609964 -0.017637555 -0.03960362 0.027374595 -0.06794192
0.0634594 -0.056999296 0.007984678 -0.0063816807 0.03753978 -0.074134015 -0.047666304 0.011265426
0.1115343 0.014200254 0.01679687 0.004559158 -0.019579183 0.035819437 0.045858737 0.002413853
-0.031942286 -0.029582312 0.09046511 0.043479986 0.049497705 0.019509537 0.028911702 0.02913335
-0.011022818 0.06954755 -0.036722388 0.052926183 0.056474954 -0.0386145 0.0961602 0.00576625
0.02807968 0.14266637 0.03993752 0.047626168 0.14670795 0.058583863 0.1120599 0.12544589
0.11203322 0.04182542 0.0503795 -0.06675324 0.06265781 0.09545004 0.0597933 -0.019885162
-0.04744722 -0.01859752 0.07951166 0.08248349 0.017226899 0.039466202 0.0760891 0.087164186
0.046997335 0.09555031 0.13893874 0.04094465 -0.012098244 -0.016697705 0.018486273 -0.03743773
-0.0626507 0.062270205 -0.0137425065 -0.08211066 -0.023592224 -0.066207975 0.048206694 0.09053732
0.14128745 0.11961145 0.043049768 0.14252281 0.13568503 0.0012728039 0.064939335 0.06834472
0.08055393 -0.011503282 0.0031856906 -0.002207944 0.026406461 0.017763916 0.08208093 0.10123231
0.06073433 -0.07680293 0.048103444 -0.031010201 0.028032988 -0.014849117 0.04257538 0.027204435
0.08246156 0.0603943 0.07649094 -0.014285813 -0.04159838 -0.07036698 -0.06892228 -0.07332401
-0.026189348 0.06861316 -0.056259893 -0.07508573 0.02949979 -0.04127124 -0.030518642 -0.029924383
0.07998561 0.07183325 0.07703085 -0.058891475 0.03733177 0.019497555 -0.027985286 -0.02510794
-0.055710614 0.03445795 0.05157399 -0.03861039 -0.056309026 -0.019169768 0.044798754 -0.047098964
-0.029417198 0.012529364 0.05353587 -0.010403445 0.0025491319 0.044920832 -0.017529717 -0.07837682
0.07478148 0.014920483 0.05901619 0.033367395 -0.049555033 -0.057186246 0.041701257 -0.07017557
0.033117235 0.009338955 -0.046001744 0.059306435 0.07083976 0.015183618 0.07124781 0.068043575
-0.017934859 -0.046643376 0.0017825266 0.031888127 0.023587903 0.07528788 -0.056056462 -0.049765687
0.014324507 -0.034379702 -0.040398173 0.06304466 -0.035444986 -0.021772366 0.005907675 0.0059834323
-0.077762365 -0.04293261 -0.06494837 0.04167389 0.012275348 -0.06765707 0.07139768 0.05050253
-0.073446125 0.07020908 0.01506423 0.052279167 0.06688182 -0.027741682 -0.08044186 0.0036211512
0.020664345 0.040665023 -0.05751885 -0.0433458 0.006174644 0.07989052 0.028229218 -0.05174935
0.062496167 0.060464364 -0.067486584 0.072468184 0.07119122 -0.033911508 -0.0006497602 0.047672372

6.bias f4 [32]
00000000: 5806 123e f4a8 84bd 1e1d 8fbd 3bc4 313d
00000010: e4e2 22bd eb9a a53c 9cca 5cbd 2cda 4ebd
00000020: f39d 0c3e e2c6 ebbc 6f6d 663c e90c c63d
00000030: 65ee 6c3d a0f9 dc3d 4ceb 763d 63a1 043e
00000040: 4b97 16bd 6675 a13d 32ef 8abd dcc8 aa3d
00000050: c8ac c23c a59a 993d ef22 b73d 03b3 8dbd
00000060: a1ff a8bd b252 cd3d c9ee 1a3d e8d4 f73d
00000070: 7d15 d63d 94a1 6ebd ebe1 59bb 669e 4d3d
0.14260232 -0.06477538 -0.069879755 0.04340003 -0.03976716 0.020215472 -0.05390416 -0.050501034
0.13732128 -0.028781358 0.014064177 0.09670431 0.05784454 0.107898 0.06028299 0.12952189
-0.036765378 0.0788372 -0.06783904 0.08339092 0.02376403 0.07500199 0.0894221 -0.069189094
-0.08251882 0.100255385 0.03782538 0.121011555 0.10453317 -0.05825956 -0.003324623 0.05019989

8.weight f4 [64, 32, 3, 3]
00000000: b5bd 433c 35e4 163d 5e20 1ebd a1db 713b
00000010: c429 57bb 83c5 71bc 6ff7 38bd 8987 b73c
00000020: 4ab1 3fbd e08b 923c 604d 4d3d be2d 3dbc
00000030: 8a87 323d 3e64 d53a 1e8e e73c b4b1 83bc
00000040: a6b7 6d3d f451 94bc 3c44 cf3d b02f d93c
00000050: b855 3f3d e820 97b8 4d03 71bd 509f 9d3c
00000060: 3205 1e3d bc2f b0bc 3d56 ac3b 0404 0cbd
00000070: 0a91 6b3c 6788 6b3d c846 e63a 5dab 843d
00000080: 6c28 e53d 20f9 253d 79d2 993d 2f80 423e
00000090: ea0d a3bc 8235 bdbc bb35 be3b 26c5 8a3c
000000a0: e456 5d3d 9a45 6e3d 1c46 13bd 4402 a53b
000000b0: 9320 a23c edc5 1e3d 71ca 84bd 64b2 053d
000000c0: f14e 623d a7b4 1cbd 2b19 3abd 43b5 cd3c
000000d0: 48dc 8fbc bc91 97bd 93cb 1ebc 37c0 b33b
000000e0: ebef 15bd b2e9 7f3d 54b8 ae3d a540 413d
000000f0: f144 613d 61e0 66bc 99e1 63bc 810b 3bbb
00000100: d6cf 1f3d c432 633d 452b 183d d442 19bd
00000110: a037 463d 967b 573d b430 523d 142c fc3c
00000120: fc7e a6bc 48b8 443d de4d 11bc 8819 8f3d
00000130: a04d 3a3d e7c0 30bd 8e4d 0c3d f445 6fbc
00000140: 0b5d 833c 0e8c fabb ce12 253d 04f3 403d
00000150: 8dea 2e3c 447c 8a3d e522 423d 53f4 8ebb
00000160: 2406 313d 163a 873d 92bb b8bc 8d14 513c
00000170: e5e5 343d 2cee 413d 5317 9d3d b205 413d
00000180: bf1a abbb 8737 713d 867b 0dbd dfc1 95bd
00000190: f7de 70bd 9bce 8bbc 2cf3 973b 7bb1 5fbd
000001a0: ec01 5fbc 909c 99bd 20f4 1d3c f44e ea3a
000001b0: 5af0 923c 35c7 273b e267 b93c 56b0 013d
000001c0: 4357 3ebd 4644 633c f22f 75bb fc7b c93c
000001d0: 6b39 39bc ab5a b5bc 5277 2fba 4b24 1cbd
000001e0: ef78 203d 2661 683c 5ed9 9cbd 043c 51bd
000001f0: f109 c33c ffe2 a1bd e2df cebc 5ead 3dbd
00000200: 5a3e 533b b0e5 91bc 23ed 623c ac6a 3abd
00000210: 020c 42bd 95aa 0cbd 59be b63c ffab 8abc
00000220: bce6 cabc 5ed9 443d a510 d4bc 0321 5c3d
00000230: 52f6 1e3d 4fca 31bc 295f 053d 6b5e 423d
00000240: ac1c 6fbc d413 543c 845a 6c3b cbb0 b4bc
00000250: 1d0b 4ebc e360 39bd b323 fe3c 6187 783b
00000260: 19b5 433b 5059 9ebd 2fef 953a c840 b53c
00000270: 2e88 7039 50a2 a83d e4a0 863c 37c6 81bd
00000280: c2b8 813d 219f c53d 7623 133c 7f1d a6bc
00000290: f6cf 3cbd d7f4 30bd 16b5 1f3c accc c6bc
000002a0: 5c6d e8bb 0122 28bd 6caf 48bc c332 873d
000002b0: d104 103e d8c4 f43c be10 433d 3d2a c03d
000002c0: a9f7 de3d 78fb eb3d 72a9 bd3d 2738 0abc
000002d0: a9f7 eb3b ccdc 063e 8908 133e df36 153d
000002e0: e23c 533d 9331 253e 2043 dfbb c763 033e
000002f0: 9a5a 313d 40cc 723c c7bc 973c 4e19 55bd
00000300: ef67 69bd 0de6 17bd 9b3d e73c e3db bbbc
00000310: 18cc d53c f2ac 8abc e4c8 a3bd e657 1abd
00000320: 5eaa 49bd 8389 db3c 1131 63bd 5642 9dbd
00000330: 6c99 3abd 47aa 053d f6dc 9dbd 8050 f7bc
00000340: 411d 29bd eb31 d53b 33bd 61bd c884 5cbd
00000350: 5715 24bd 94bc f73c 92d3 b2bc bf61 64bd
00000360: d030 e5bb d0a2 043d 6b7f 643d 3d4c 41bd
00000370: ddfa d23c dd62 55bd 5210 3abd a909 eb3c
00000380: 71b7 17bd ead1 5e3c 0345 e53c d78f 753c
00000390: 574a 85bb 19f1 0d3d 2f08 d53c dead 68bd
000003a0: 82a7 1e3d f5cd b0bd a584 8b3c 4473 843c
000003b0: 00c2 c7bc 4605 d5bc cf72 33bc 1b69 7fbd
000003c0: 8c77 29bd d2af 703c 1db9 3d3c d1e0 73bd
000003d0: 62d5 183d 168b c8bb 2a0a 32bd 9285 0cbd
000003e0: b857 89bd 93c1 143d 7aa9 ee3c 38c2 24bd
000003f0: 5d8c 2cbd 773c 3fbb 3d68 9abd bffd bf3c
0.011947085 0.03683873 -0.038605087 0.003690459 -0.003283129 -0.014756563 -0.045157846 0.022403495
-0.046799935 0.017888963 0.05012262 -0.01154655 0.04358629 0.0016280485 0.028266009 -0.016075946
0.05803647 -0.018105485 0.101204365 0.026511997 0.046712607 -7.20637e-05 -0.05884104 0.019241005
0.038579173 -0.021507137 0.005259304 -0.034183517 0.014377842 0.05750313 0.0017568702 0.064779975
0.111893505 0.040520787 0.075108476 0.1899421 -0.019904096 -0.023096804 0.005804745 0.01693971
0.054037943 0.058171846 -0.035955533 0.0050356705 0.019790923 0.038762975 -0.06483925 0.03264083
0.055251066 -0.03825822 -0.04543416 0.025110846 -0.017561093 -0.074008435 -0.009692091 0.0054855603
-0.036605757 0.06247873 0.085312515 0.04718079 0.05499739 -0.014091582 -0.013908767 -0.0028540792
0.039016567 0.055468336 0.03715064 -0.037417248 0.048392892 0.052608095 0.05131598 0.030782737
-0.020324223 0.048027307 -0.008868663 0.069872916 0.045484185 -0.043152716 0.03425365 -0.0146040805
0.016035577 -0.0076460904 0.040301137 0.047106758 0.010676038 0.06761983 0.04739656 -0.004362622
0.043218747 0.06602876 -0.022550378 0.012761247 0.044164557 0.04734628 0.07670464 0.047124572
-0.0052216942 0.058890846 -0.03454163 -0.073123686 -0.058806386 -0.01706629 0.0046371426 -0.054612618
-0.013611298 -0.07500565 0.0096407235 0.0017876313 0.017936874 0.0025600914 0.022632543 0.031662308
-0.046469938 0.013871258 -0.003741261 0.024595253 -0.011305193 -0.02213796 -0.00066935003 -0.03812055
0.03917783 0.014183318 -0.07658647 -0.051082626 0.023808451 -0.07904624 -0.02525324 -0.046307914
0.003223321 -0.017809719 0.013850483 -0.045511886 -0.047374733 -0.034342367 0.022307562 -0.016927717
-0.024768226 0.04805886 -0.025886843 0.05374242 0.038809128 -0.010851457 0.032561455 0.047453325
-0.014594238 0.0129441805 0.0036064694 -0.022056958 -0.012575892 -0.045258414 0.031022882 0.003792249
0.0029862581 -0.07731879 0.001143908 0.022125617 0.00022938914 0.08234084 0.01643414 -0.063366346
0.06334068 0.09649492 0.0089806225 -0.020277737 -0.046096765 -0.043202247 0.009747764 -0.024267517
-0.007093115 -0.041048054 -0.012248855 0.06601479 0.14064337 0.029879019 0.04762339 0.09383056
0.10887081 0.11522573 0.09260835 -0.008436239 0.0072011543 0.13170165 0.14358725 0.036429282
0.051571734 0.16132192 -0.006813422 0.12831031 0.043299295 0.014819205 0.018522633 -0.052026086
-0.056983884 -0.037084628 0.028227618 -0.022931999 0.026098296 -0.01692817 -0.07997301 -0.037681483
-0.04923474 0.02679897 -0.055466715 -0.07678668 -0.04555647 0.032633092 -0.077081606 -0.030189753
-0.041287664 0.006506195 -0.055112075 -0.053837568 -0.040059414 0.030241288 -0.0218294 -0.05575728
-0.0069943443 0.032381833 0.055785578 -0.047191847 0.025754387 -0.052096236 -0.04542572 0.02869113
-0.037040178 0.013599852 0.027987009 0.014987907 -0.0040677 0.034653757 0.026004879 -0.056806438
0.038733967 -0.08633033 0.017031023 0.016168244 -0.024384499 -0.026003491 -0.0109526655 -0.062356096
-0.041373774 0.014690356 0.011579779 -0.059540574 0.037312873 -0.006120096 -0.043466724 -0.03430707
-0.06706184 0.03631742 0.029133547 -0.040224284 -0.04212605 -0.0029180327 -0.07539413 0.023436425

8.bias f4 [64]
00000000: 5282 963d 170b 2cbd fc60 4ebc 079f 073c
00000010: 7a61 bcbc c0b8 9b3d bb62 6a3d 5b23 8fbb
00000020: 75e0 69bd 4ac6 75bd b938 57bd 81b6 0e3c
00000030: 9530 0b3c fa34 6a3d 622c 673d 4993 19bc
00000040: 0dc0 2e3c 02f3 42bb 12eb 0f3d 3c71 21bb
00000050: cc5a 73bd 4905 95bc 2800 1a3d be01 6bbd
00000060: daee 76bd f64d ae3c f6b9 4b3a 0343 803d
00000070: 41da 533d 067b 3bbd 33b6 923d ee60 0f3d
00000080: 37bd bebc 4cdd 743d f7dc 0cbd 7e76 6abd
00000090: 40c1 72bc 2ae5 49bd 5ce2 7ebd a945 213b
000000a0: 9ec7 1bbd c64b 233d faa0 26bc 673a ad3a
000000b0: 3c3f dcbc 866c 333d 742c 6bbb e952 c83c
000000c0: fc86 2abc e6b9 bd3d 5f2d fa39 dbe7 99bc
000000d0: 7e4c 653d 1538 103c e92b 1a3d 9a36 50bd
000000e0: c921 01bd dae7 20bd 0e31 093d daee 5dbd
000000f0: 9583 d9bc 8203 363d 7a91 5d3c d109 fabc
0.073490754 -0.042002764 -0.012596365 0.008277661 -0.0229957 0.07603598 0.057223063 -0.0043682284
-0.057098825 -0.060003556 -0.05254433 0.0087105045 0.00849547 0.05717943 0.05643881 -0.009373494
0.010665906 -0.0029746895 0.03513629 -0.0024634143 -0.059412763 -0.018190997 0.037597805 -0.05737471
-0.06028638 0.021277409 0.0007771546 0.062627815 0.051721815 -0.04577162 0.07163658 0.03500455
-0.023283584 0.059781358 -0.034390416 -0.05724191 -0.014816582 -0.049290814 -0.062227592 0.002460817
-0.038032167 0.039867185 -0.010170216 0.0013216258 -0.026885621 0.043804668 -0.003588465 0.024453597
-0.010408159 0.09263973 0.0004771752 -0.018787315 0.05598115 0.0088024335 0.037639532 -0.050833322
-0.03152636 -0.03928361 0.033494048 -0.054182865 -0.026552001 0.04443694 0.013523454 -0.030522259

10.weight f4 [2, 64, 1, 1]
00000000: ae96 00be cb2d 7e3d abfa 4c3d 06e7 ea3d
00000010: 6892 c6bc e638 cfbd 8cc1 3ebe bbf0 debd
00000020: 4748 6abd c4a8 9e3d 9704 9abd da01 323e
00000030: 95a1 183e cef6 953d 9bc4 aabc a8e7 af3d
00000040: d3dc ffbd 9045 ecbc 3dee 623d 9b2e 193d
00000050: 65a8 8e3c 9dd5 943d 4495 9e3d 9065 b1bb
00000060: d01e 1fbd 589d 933d c096 843d f5bf e7bd
00000070: 8f8c bfbd 6474 a6bc 2d3c 8d3d 3bf2 aa3d
00000080: 0dab f2bd e4b3 83bd 9885 67bc d59a 92bc
00000090: 3e32 713b a961 453d 1f0c 133d 7729 bcbd
000000a0: f016 b13c f503 833c 2b83 103d 97b7 033d
000000b0: b4d3 bf3d b142 b9bd 7ded e6bd 8195 883d
000000c0: 969d f5bd 308c 8dbd 86dd 09be add4 69bd
000000d0: 8291 07be 7910 3d3d a167 073d 0eb8 893d
000000e0: f8d5 fabc 4510 09bb cda0 89bd 86db fabd
000000f0: e211 913d 1840 7c3d c50c 243e 5a22 bc3c
00000100: 1064 1abe 2871 453d 87f2 133e 373e bdbd
00000110: 38d7 abbc 4974 d3bd c703 30bd cdcc c0bd
00000120: 2c92 2cbd e762 e53d 0d81 c33c 18bc 52bc
00000130: d9ae f5bc c4fe 213e c36e 44bd c2d7 f6bd
00000140: 6370 cc3d ec42 83bd 750f b8bd 4471 9d3d
00000150: 5ce2 e5bc 2a17 d13d acd8 dd3d 5cec 2dbd
00000160: cdd9 e73d 2ed5 5c3d 02a7 383d c517 05bd
00000170: 1dd3 e83d f755 89ba 62bd 17be 893f 983c
00000180: 8d2b 5f3a d835 f4bc c049 5e3d acd0 9bbd
00000190: 217c b1bd 0499 e2bd 9c92 45bd f4e5 803b
000001a0: bbf7 8d3d 9cf1 133e dec6 ff3d 3277 c33d
000001b0: 5c30 a6bd 24a8 73bd 6f02 65bd 740e 713d
000001c0: 3d2f eb3b ece5 03be 83f7 b9bd 5b03 d6bd
000001d0: d52e 9e3d f02a 283d 6871 963d a0ab c0bc
000001e0: 0513 533d a0ba 1e3d 10c9 ccbd 4cfb dabd
000001f0: f037 ae3c 5e5c d93d 7562 cb3d cb6a adbd
-0.1255748 0.06205539 0.050043743 0.114698455 -0.024239734 -0.101182744 -0.1862852 -0.108857594
-0.057197835 0.07747033 -0.07520407 0.17383519 0.14905389 0.07322465 -0.020845702 0.08589107
-0.12493291 -0.028841764 0.055402983 0.037397962 0.017414281 0.07267306 0.07743314 -0.0054137185
-0.038847744 0.07207745 0.06474066 -0.1131591 -0.09352981 -0.020319171 0.06896243 0.08346983
-0.118490316 -0.06430796 -0.014130972 -0.017896095 0.0036803628 0.04818884 0.03590023 -0.09187596
0.021617383 0.015993098 0.03528134 0.032157507 0.09366551 -0.090459235 -0.11275766 0.066691406
-0.11992948 -0.06911504 -0.1346341 -0.05708759 -0.132391 0.046158288 0.033057813 0.06724559
-0.030619606 -0.0020914238 -0.067201234 -0.12248902 0.07083489 0.061584562 0.16020496 0.022965599
-0.15077233 0.048203617 0.14447986 -0.09240382 -0.020976648 -0.10324914 -0.042972352 -0.09414063
-0.042131588 0.11200505 0.023865247 -0.012862228 -0.0299906 0.15819842 -0.047957193 -0.12052871
0.099823736 -0.06409249 -0.08987323 0.07687619 -0.028062038 0.10209496 0.108323425 -0.042461738
0.11320839 0.05391424 0.045081146 -0.03249337 0.11368392 -0.001047789 -0.14818338 0.018584983
0.00085132645 -0.029810831 0.054269552 -0.076081604 -0.08666254 -0.11064342 -0.04823552 0.0039336625
0.069320165 0.14447635 0.12489103 0.09544219 -0.081146926 -0.059486523 -0.055910524 0.058851674
0.007177262 -0.12880677 -0.09080412 -0.10449859 0.07723776 0.041056573 0.07345849 -0.023519337
0.05153181 0.0387522 -0.09999287 -0.10692462 0.021266907 0.10613321 0.099308886 -0.08467635

10.bias f4 [2]
00000000: 192f b13d 5cd3 babc
0.08651561 -0.022805862
