checkpoints/model_1.pt (torch, 103423 bytes, 12 tensors)

0.weight f4 [4, 2, 3, 3]
0	0x3c845b0e	0.0161567
1	0xbd9dae45	-0.07699255
2	0x3d7d932c	0.061907932
3	0xbe5f47ec	-0.2180478
4	0x3e61b5c3	0.22041993
5	0x3e1dbd5a	0.15404263
6	0x3dd6a00a	0.10479744
7	0x3c7ca4ca	0.015420148
8	0x3dfd349c	0.1236355
9	0x3e5ab8cb	0.21359555
10	0xbe04018b	-0.12891214
11	0x3cb325a8	0.021868542
12	0xbe57d205	-0.2107621
13	0x3d741fe6	0.059600733
14	0x3e166ddf	0.1469035
15	0xbe4b62c5	-0.19861896
16	0xbe7b5de6	-0.24547538
17	0xbd00eb3f	-0.03147435
18	0x3e50ae13	0.20378904
19	0xbc6e96b1	-0.014562295
20	0xbde85b39	-0.11345524
21	0x3c337816	0.010953924
22	0xbe54256e	-0.20717403
23	0x3dafc52e	0.08582531
24	0xbdbef7e9	-0.09324629
25	0x3e6535f7	0.22383867
26	0xbdd3b28b	-0.10336789
27	0xbe59a207	-0.21253215
28	0x3cc838ca	0.024441142
29	0x3e40758b	0.18794839
30	0xbb8fde28	-0.0043904968
31	0xbe0df597	-0.13863216
32	0x3cb4e8fb	0.02208375
33	0x3e2deabd	0.16984077
34	0x3cc70aa3	0.024297064
35	0xbe1630ea	-0.14667097
36	0xbe3a5691	-0.18197085
37	0xbdd9fa94	-0.10643497
38	0x3e1080fd	0.14111705
39	0xbdc24dd8	-0.09487504
40	0x3c06ddc6	0.008231586
41	0x3e5d9544	0.21638972
42	0x3ce670a9	0.028129892
43	0x3e6bda22	0.2303243
44	0xbe366157	-0.1781057
45	0x3c8a1d04	0.016859539
46	0xbe3cf43f	-0.18452547
47	0x3d9eefec	0.07760605
48	0x3d4c8b7d	0.049937714
49	0xbd89893e	-0.0671563
50	0xbe755f8e	-0.23962232
51	0x3da5d70d	0.08097658
52	0xbc9e2850	-0.019306332
53	0xbc146dcc	-0.009059381
54	0xbcb156be	-0.021647807
55	0xbe615218	-0.22003973
56	0xbdf3ca18	-0.11903781
57	0x3e00b100	0.1256752
58	0x3dc18a87	0.0945025
59	0x3deb1624	0.11478832
60	0xbd293046	-0.041305803
61	0x3e54596c	0.20737237
62	0xbe190ab0	-0.14945483
63	0xbd39267b	-0.045202713
64	0xbe671446	-0.22566327
65	0x3dfcc63f	0.123425
66	0xbe689ca5	-0.22716005
67	0x3e5754ac	0.21028394
68	0xbd9d078c	-0.07667455
69	0x39ac789d	0.0003289626
70	0x3d7054f1	0.058674756
71	0x3dc18ce7	0.09450703

0.bias f4 [4]
0	0xbcbf3831	-0.023342224
1	0xbdac8c56	-0.084252045
2	0x3e80eefc	0.2518233
3	0xbe60bcbc	-0.21946996

2.weight f4 [8, 4, 3, 3]
0	0xbe29fa1c	-0.16599315
1	0xbe1da040	-0.15393162
2	0x3d7a749a	0.061146356
3	0xbd8a2b62	-0.06746556
4	0xbe33eb35	-0.17570193
5	0xbcb1e14c	-0.021713875
6	0x3df0c383	0.11756041
7	0x3d5351c2	0.051591642
8	0x3d83e232	0.06439628
9	0xbbf47dac	-0.0074612703
10	0x3e22a824	0.15884453
11	0xbd2ca09b	-0.042145353
12	0xbde03b62	-0.109488264
13	0x3d79fffb	0.061035138
14	0x3c152df2	0.0091051925
15	0x3de00f35	0.109404005
16	0xbdcf31ac	-0.10116896
17	0x3dda8905	0.10670666
18	0x3e042d95	0.12908013
19	0x3da6c8f6	0.08143799
20	0xbda80245	-0.08203558
21	0x3d40bc01	0.047054294
22	0xbd9774e6	-0.073953435
23	0x3e20588d	0.1565878
24	0x3e26d80e	0.16293356
25	0xbdf5bb2a	-0.11998589
26	0x3e15491f	0.14578675
27	0x3db75df2	0.089534655
28	0xbd5f5627	-0.05452552
29	0xbda2dbb0	-0.07952058
30	0xbd544991	-0.05182797
31	0x3bec8572	0.0072180564
32	0x3dcd82ca	0.10034712
33	0x39eeeab2	0.0004556976
34	0xbc2baab5	-0.010477711
35	0x3debb317	0.11508768
36	0xbda6eb10	-0.08150303
37	0x3e25aa23	0.16178183
38	0x3e3c5ecf	0.18395542
39	0x3e3fbd44	0.18724543
40	0x3b97b8a9	0.0046301675
41	0x3d93b604	0.07212451
42	0xbe13fc85	-0.14451797
43	0x3e20d65f	0.15706776
44	0xbdf724f0	-0.12067592
45	0x3dcb1585	0.09916214
46	0xbd2bedd8	-0.041974872
47	0x3e3673bb	0.17817585
48	0xbd81e31b	-0.06342145
49	0x3e2c5046	0.16827497
50	0x3d706386	0.058688663
51	0xbdcdf57a	-0.100565866
52	0xbdf56468	-0.119820416
53	0x3df058bc	0.11735675
54	0x3dda1c11	0.106498845
55	0xbd9b52e3	-0.07584169
56	0xbcc2a051	-0.023758085
57	0xbd7d9dda	-0.061918117
58	0x3e07e52f	0.1327102
59	0xbdece85e	-0.11567758
60	0xbd87ad5e	-0.06624864
61	0x3e24951a	0.16072503
62	0x3e30784b	0.17233388
63	0x3e0f2c31	0.13981701
64	0xbe0d6d48	-0.13811219
65	0x3cdd4e2b	0.027014812
66	0x3da0910d	0.07840166
67	0x3e0b0825	0.13577326
68	0x3d85d5e5	0.06534938
69	0xbdcceda3	-0.10006263
70	0x3cb43094	0.02199582
71	0x3cd0ccb5	0.025488237
72	0xbd358b65	-0.04432239
73	0x3e13c3e2	0.14430192
74	0x3cf7b84f	0.030239252
75	0x3a56e0a2	0.0008196925
76	0x3d83117d	0.0639982
77	0x3da2006b	0.07910236
78	0xbd08ade1	-0.03336895
79	0xbd626f71	-0.05528206
80	0xbe1c9b79	-0.15293683
81	0x3dd3b2b7	0.103368215
82	0x3d0b1b7e	0.033961765
83	0x3de020fc	0.10943791
84	0xbe28841f	-0.1645665
85	0xbd6d0dc0	-0.05787444
86	0xbdcdff1b	-0.10058423
87	0x3c9e68c6	0.01933707
88	0xbe0c5753	-0.13705187
89	0xbe0d9ee1	-0.13830139
90	0xbc055bbe	-0.008139549
91	0x399671c0	0.0002869498
92	0xbe3557ba	-0.17709246
93	0x3e0e281b	0.13882487
94	0xbced3a46	-0.028958451
95	0xbe327510	-0.17427468
96	0x3d5ac83d	0.05341362
97	0xbcadb605	-0.021204958
98	0x3d93cb11	0.07216466
99	0xbe2fd691	-0.17171694
100	0x3e05182b	0.129975
101	0xbded1c12	-0.115776196
102	0xbd9333f8	-0.071876466
103	0xbe263cb0	-0.16234088
104	0x3e03f6e7	0.12887155
105	0x3d8bcdd4	0.06826368
106	0xbdf16ea4	-0.11788681
107	0xbe18ae58	-0.14910257
108	0x3e1a6b79	0.1508006
109	0x3d6d5e57	0.057951298
110	0xbe20cd22	-0.15703252
111	0x3d9ae08c	0.0756236
112	0x3ca6c32a	0.020356733
113	0xbe312261	-0.17298271
114	0xbe368ccb	-0.17827146
115	0xbe0d73aa	-0.13813654
116	0xbe3c23e3	-0.18373065
117	0x3d8f4b93	0.069968365
118	0x3c6cf7ea	0.014463404
119	0xbc9f4bac	-0.019445263
120	0xbcbaba2d	-0.022793854
121	0x3d7e9463	0.06215323
122	0xbddd1feb	-0.107971035
123	0x3d9b629f	0.0758717
124	0xbe092726	-0.1339384
125	0xbe306528	-0.17226088
126	0xbc58e59a	-0.013238335
127	0xbd5f2f80	-0.05448866
128	0x3dbd53b0	0.09244478
129	0x3e02a598	0.12758482
130	0xbb099f84	-0.002099962
131	0x3dcd77ea	0.100326374
132	0x3cd25cde	0.025679048
133	0x3d1a0dba	0.037610747
134	0x3d783c7b	0.060604554
135	0x3d85c998	0.065325916
136	0xbe241370	-0.1602304
137	0xbdf624ae	-0.12018715
138	0x3d8cb4ea	0.06870444
139	0x3d82dfac	0.06390318
140	0x3e0f7059	0.14007701
141	0x3cdf4764	0.027255721
142	0x3db236fc	0.08701894
143	0x3e16cad6	0.14725813
144	0xbd071bfe	-0.03298568
145	0xbdb41bb7	-0.08794349
146	0x3deb0dc6	0.114772364
147	0xbca9f24c	-0.020745419
148	0x3e0897bf	0.13339137
149	0x3e2d0d06	0.168995
150	0x3d492bfe	0.04911422
151	0x3db92d00	0.09041786
152	0x3cf68a20	0.03009516
153	0x3dcf84ae	0.101327285
154	0x3d625d1e	0.055264585
155	0xbe3e8ef2	-0.18609217
156	0x3df9749f	0.12180447
157	0xbde3e781	-0.1112814
158	0xbddcab8a	-0.10774906
159	0xbdf19e7e	-0.11797808
160	0xbe198902	-0.1499367
161	0x3c969bf7	0.018384917
162	0xbe11b93a	-0.14230815
163	0x3d276d4f	0.04087573
164	0xbb8e3cf0	-0.0043407604
165	0x3df700c8	0.12060696
166	0xbd0fa1dc	-0.03506647
167	0x3c5943b6	0.013260772
168	0x3d3e56ee	0.04646962
169	0x3db1ec72	0.086876765
170	0xbd5408a5	-0.051766057
171	0xbdad1d6d	-0.08452878
172	0xbcc37e70	-0.023864001
173	0x37e7ad5b	2.761807e-05
174	0x3de8a01a	0.11358662
175	0xbdc59ab8	-0.09648651
176	0x3dce9f6e	0.100890025
177	0xbd5bbbd2	-0.053645916
178	0xbe21d004	-0.15802008
179	0xbdef95d8	-0.11698502
180	0x3dd274d0	0.102761865
181	0xbe2ecfb0	-0.17071414
182	0x3d5b4d47	0.053540494
183	0xbcd5af00	-0.026084423
184	0xbe0c49e0	-0.13700056
185	0x3d3b4e29	0.045728836
186	0xbd9885f8	-0.074474275
187	0x3da0b056	0.078461334
188	0xbdf19a93	-0.11797061
189	0x3db65d6b	0.08904537
190	0x3c97e59c	0.018542103
191	0xbe3bfd9a	-0.1835846
192	0xbc3c8cb8	-0.011508159
193	0xbd725b76	-0.059169255
194	0x3c05b8ea	0.008161763
195	0xbdd2f2c7	-0.10300212
196	0xbdbc1b4a	-0.091848925
197	0xbdeffb6a	-0.11717875
198	0xbad80601	-0.0016481281
199	0x3db97102	0.09054758
200	0xbd658522	-0.05603517
201	0x3e3915ec	0.18074769
202	0x3bddd77b	0.006770072
203	0x3d72bbb6	0.059261046
204	0x3da30be3	0.079612516
205	0x3d3337c7	0.043754365
206	0x3e2d8381	0.16944696
207	0xbe176209	-0.14783491
208	0xbe36729e	-0.1781716
209	0xbe3e5582	-0.18587306
210	0x3e12d532	0.1433914
211	0xbbc34c55	-0.005960027
212	0xbe1a9693	-0.15096502
213	0xbdd2e6aa	-0.10297902
214	0x3daddcc5	0.08489374
215	0xbd8a8eeb	-0.06765541
216	0x3d92396e	0.0713986
217	0x3d1e3a23	0.038629662
218	0x3dc44dbc	0.09585139
219	0x3db14827	0.0865634
220	0xbce979e1	-0.0285005
221	0xbc2d89de	-0.010591952
222	0x3c2862af	0.010277434
223	0x3e1c7578	0.15279186
224	0xbd4bfaff	-0.049799915
225	0x3c76fabd	0.015074429
226	0x3d7639b6	0.06011363
227	0xbdc9d8e7	-0.09855824
228	0x3d4e3cba	0.050350882
229	0xbb6a91c1	-0.0035792443
230	0x3d972ea2	0.073819414
231	0x3e321fa0	0.17394876
232	0x3dc136b5	0.09434263
233	0x3c81e1e3	0.015854781
234	0x3e3b89bc	0.1831426
235	0xbdbdcbc7	-0.09267383
236	0x3d279342	0.04091192
237	0x3e18c470	0.14918685
238	0x3e2095e8	0.15682185
239	0x3cdddf07	0.027083887
240	0x3806ef54	3.217098e-05
241	0xbdf629c8	-0.12019688
242	0x3e30b640	0.17257023
243	0xbc97a28e	-0.01851013
244	0xbd3e2eae	-0.046431236
245	0x3e0f55fe	0.13997647
246	0xbcb70fdc	-0.02234643
247	0x3dcc1dd3	0.09966626
248	0xbdc82aba	-0.097737744
249	0x3e1fe54a	0.1561481
250	0x3e2f90dc	0.17145103
251	0xbd709c19	-0.058742616
252	0xbdcd798e	-0.1003295
253	0x3de51efd	0.11187551
254	0x3e2594a2	0.1616998
255	0x3dc3dd44	0.095636874

2.bias f4 [8]
0	0xbdf0e7d3	-0.11762967
1	0xbd6d98e0	-0.05800712
2	0x3bed1da5	0.0072362
3	0x3e43dbf7	0.19126879
4	0x3d3b9fe7	0.04580679
5	0xbce88d77	-0.028387768
6	0x3c6128af	0.01374261
7	0xbdcdfbde	-0.100578055

4.weight f4 [16, 8, 3, 3]
0	0xbd5678ba	-0.052361228
1	0xbd5edf01	-0.05441189
2	0xbdcada8a	-0.09904964
3	0xbd4c326a	-0.049852766
4	0x3dba5958	0.09099072
5	0x3d7d1fcb	0.0617979
6	0x3ccd5200	0.025063515
7	0xbd4c1852	-0.04982788
8	0xbca118dc	-0.019665174
9	0xbdac9df9	-0.084285684
10	0x3dddf18f	0.10837089
11	0x3d4f2d30	0.050580204
12	0x3d784b1d	0.06061851
13	0xbd929d66	-0.071589276
14	0x3e161913	0.14658003
15	0xbcb8d56c	-0.022562705
16	0x3daa0779	0.083022065
17	0xbda50388	-0.08057314
18	0xbdfea565	-0.1243389
19	0xbbf6fca4	-0.0075374413
20	0x3ba2114e	0.0049459105
21	0x3d8ae98e	0.06782828
22	0xbcbba7d4	-0.022907175
23	0x3ddcbe5a	0.10778494
24	0xbdb2e202	-0.08734514
25	0xbd72accc	-0.059246823
26	0x3dcb2f4c	0.099211305
27	0x3d1205ff	0.03565025
28	0x3dfebb81	0.12438107
29	0x3cca181f	0.024669705
30	0xbd23dc75	-0.040005166
31	0xbd8ca454	-0.068672806
32	0x3d4e1f1d	0.05032264
33	0x3d9e3e28	0.07726699
34	0xbca0cf3f	-0.019630073
35	0xbd9bbdc4	-0.07604554
36	0x3dd407bc	0.10353038
37	0xbd55039d	-0.0520054
38	0x3ce8443c	0.02835285
39	0xbd7935f6	-0.060842477
40	0x3b680c6a	0.003540779
41	0xbdff6af2	-0.1247157
42	0x3e0f36e5	0.13985784
43	0xbd971175	-0.073763765
44	0x3d96a8e8	0.07356435
45	0xbd7c7c66	-0.061642073
46	0x3da79ada	0.081838325
47	0xbd85934e	-0.06522237
48	0x3da2a474	0.07941523
49	0x3c0c9b24	0.00858191
50	0x3c427e40	0.011870921
51	0xbdc53c9f	-0.09630703
52	0x3da0c0ce	0.078492746
53	0x3de8c2c5	0.11365274
54	0x3db47c0f	0.08812725
55	0x3df70a21	0.12062479
56	0xbd32ecff	-0.04368305
57	0x3dc09a80	0.094044685
58	0xbdbfbdb9	-0.093623586
59	0x3e063806	0.13107309
60	0x3ca6b104	0.02034808
61	0x3bfc774e	0.007704652
62	0xbcad0094	-0.02111844
63	0x3d687f00	0.05676174
64	0x3e15d29d	0.14631124
65	0x3a5eaeac	0.0008494656
66	0x3e204d83	0.15654568
67	0xbcbe673e	-0.02324259
68	0x3d1241fa	0.03570745
69	0x3d58e7c5	0.052955408
70	0x3ddd9851	0.10820068
71	0x3dd0a365	0.10187415
72	0x3d692454	0.05691941
73	0xbda83c35	-0.082146086
74	0xbe0e3802	-0.13888553
75	0xbc5b37f4	-0.0133800395
76	0xbde160f8	-0.110048234
77	0xbda9b2fe	-0.08286093
78	0x3dd0f46e	0.10202871
79	0xbd72ea68	-0.05930558
80	0xbd82075e	-0.063490614
81	0xbd2b64c6	-0.041844152
82	0xbe031180	-0.12799644
83	0x3d5b911d	0.053605188
84	0xbc81f04b	-0.01586165
85	0xba2a2b7c	-0.0006491465
86	0xbe152001	-0.1456299
87	0xbd01a089	-0.03164724
88	0x3cb3c5c0	0.02194488
89	0xbdc92a22	-0.09822489
90	0x3e0ed47f	0.13948248
91	0xbaf07bb4	-0.0018347413
92	0xbd752331	-0.059848014
93	0x3d0fe500	0.0351305
94	0xbd420f06	-0.04737761
95	0xbd8a75b0	-0.06760728
96	0xbbfa3c33	-0.007636571
97	0x3b88b17e	0.0041715493
98	0xbd326286	-0.04355099
99	0x3e10d8f7	0.14145266
100	0xbc9079ec	-0.017636262
101	0xbd5da15c	-0.054108962
102	0xbd29f339	-0.04149172
103	0x3e1d91bb	0.15387623
104	0xbd3ea230	-0.046541393
105	0x3e2b971d	0.16756864
106	0x3a8a6e48	0.0010561431
107	0x3e16c274	0.14722615
108	0xbd9221e4	-0.071353704
109	0x3cccc4c4	0.024996169
110	0xbde05701	-0.10954095
111	0xbd1ae4b5	-0.03781577
112	0xbd9f9aab	-0.077931724
113	0xbdae511d	-0.08511565
114	0x3dae3784	0.085066825
115	0x3dae7d7b	0.08520027
116	0x3d1d7955	0.03844579
117	0xbcebc67a	-0.028781164
118	0xbc542e9e	-0.0129505675
119	0x3d2a40e1	0.04156578
120	0x3da0f94a	0.07860048
121	0x3e17e410	0.14833093
122	0x3d91a37e	0.07111262
123	0xba9d8259	-0.0012016996
124	0x3dd786f0	0.10523784
125	0x3dd68692	0.10474886
126	0x3d0bcba8	0.03412977
127	0xbd3ceb3e	-0.046122782
128	0xbca710d5	-0.020393768
129	0x3befcbe7	0.007318008
130	0xbddfe782	-0.109328285
131	0x3dcca4b5	0.09992353
132	0xbda1c13a	-0.07898183
133	0x3de45869	0.111496754
134	0xbced3635	-0.028956512
135	0xbd6c2b64	-0.057658568
136	0x3da6eaf9	0.08150286
137	0x3d710428	0.058841854
138	0xbd998816	-0.074966595
139	0x3de3386f	0.11094748
140	0x3dc185dc	0.0944936
141	0x3d415e88	0.047209293
142	0x3daffdfe	0.08593367
143	0x3aefe32b	0.0018301954
144	0xbdaadfe3	-0.08343484
145	0x3b706e2c	0.0036686761
146	0x3d7b096e	0.06128829
147	0x3ddb5905	0.107103385
148	0xbd70368f	-0.05864578
149	0xbdbbc5a9	-0.0916856
150	0x3dee2f05	0.11630062
151	0x3d67858d	0.05652385
152	0xbd97598a	-0.07390125
153	0xbd1e1bfa	-0.0386009
154	0xbe010c47	-0.1260234
155	0xbd56a689	-0.052404914
156	0x3cbd367a	0.023097266
157	0xbcd09799	-0.025462912
158	0xbdb8bab3	-0.09019985
159	0xbe0edf70	-0.13952422
160	0xbc4f3a74	-0.012648214
161	0x3c7568bf	0.014978587
162	0xbccee83e	-0.025257226
163	0x3d636138	0.055512637
164	0x3e020941	0.12698843
165	0xbd847391	-0.06467355
166	0x3e0957ca	0.13412395
167	0x3df66c14	0.12032333
168	0x3dce0350	0.100592256
169	0x3dbc6b49	0.092001505
170	0x3ce1a926	0.027546477
171	0xbd1646df	-0.03668868
172	0x3e05b1fa	0.13056174
173	0x3df4ff07	0.11962705
174	0xbd87faba	-0.06639619
175	0x3d9c7704	0.07639888
176	0x3d18f4e2	0.037342913
177	0x3e2a1b57	0.16611992
178	0x3d7abb69	0.061213885
179	0x3c80ef45	0.015739093
180	0x3d37a32c	0.044833347
181	0x3c954f45	0.018226275
182	0x3d8b18c4	0.06791833
183	0x3dd3517a	0.10318275
184	0xbd5f6656	-0.054540955
185	0x3da11c5a	0.07866736
186	0x3d43b5ad	0.04778068
187	0xbbf5db63	-0.0075029596
188	0x3d83f699	0.06443519
189	0x3d37f325	0.044909615
190	0xbc6bb6de	-0.014386861
191	0xbdbffb29	-0.09374077
192	0x3e1de73f	0.15420245
193	0x3de6a3e1	0.11261726
194	0x3cb1d952	0.021710072
195	0x3d7f3fa5	0.062316556
196	0xbcd59b99	-0.026075171
197	0x3db672c5	0.08908609
198	0x3d98d423	0.07462337
199	0x3d529d94	0.05141981
200	0x3cbd0e80	0.023078203
201	0xbdc24f9d	-0.09487841
202	0xbd9f5efa	-0.07781787
203	0xbd814371	-0.063116916
204	0x3e0d2fbe	0.13787743
205	0x3d3ef12c	0.04661672
206	0x3cd24914	0.025669612
207	0xbda2f628	-0.07957107
208	0xbcd3b9bf	-0.025845407
209	0xbdbef6a5	-0.093243875
210	0xbdd682e9	-0.10474188
211	0xbda86b35	-0.08223573
212	0x3c7a64a0	0.01528278
213	0xbdae94e4	-0.085244924
214	0x3de03ef4	0.10949507
215	0x3de2c63d	0.11072967
216	0x3cb78945	0.022404322
217	0xbe2304ec	-0.15919846
218	0xbe0091c3	-0.12555604
219	0xbb8da653	-0.004322806
220	0xbcf46282	-0.029832128
221	0x3cff0ab7	0.031133039
222	0x3d0990fa	0.033585526
223	0x3d4e4a13	0.05036361
224	0x3c911e94	0.017714776
225	0xbe224ff0	-0.15850806
226	0xbd32dfd5	-0.043670494
227	0xbded7a52	-0.115955964
228	0xba53a218	-0.0008073165
229	0xbe0a6598	-0.13515317
230	0xbdc63fab	-0.096801125
231	0xbde805a9	-0.113292046
232	0xbd3f7941	-0.046746496
233	0xbdb3b971	-0.087756045
234	0xbe000b94	-0.12504417
235	0xbdb2e781	-0.08735562
236	0x3c63adc2	0.013896408
237	0x3d46ec20	0.04856503
238	0xbde431e8	-0.11142331
239	0xbdc36fa8	-0.09542781
240	0x3d59c8f1	0.05317015
241	0x3cf90a39	0.030400382
242	0x3c8a9eea	0.01692148
243	0x3d062ae2	0.03275574
244	0xbdbf836c	-0.093512386
245	0x3df72b63	0.12068822
246	0xbdbffab0	-0.09373987
247	0xbaf43b92	-0.0018633476
248	0x3dcd726e	0.10031591
249	0x3dc29ae9	0.09502203
250	0xbd3ae2d6	-0.045626484
251	0x3bf69d88	0.0075261034
252	0xbdf18c09	-0.11794288
253	0xbb66b50e	-0.0035203132
254	0xbe020bbd	-0.1269979
255	0xbd210958	-0.03931555

4.bias f4 [16]
0	0xbd56ed31	-0.052472297
1	0x3e3ea5cf	0.18617938
2	0x3d90f545	0.070780315
3	0x3d7f8bb3	0.062389087
4	0xbdf67a58	-0.12035054
5	0xbc6c6b64	-0.014429901
6	0xbdb4da06	-0.08830647
7	0x3de3f9e1	0.11131645
8	0x3d501d04	0.05080892
9	0x3e07200a	0.13195816
10	0x3e24439e	0.16041419
11	0xbd2ce75f	-0.04221284
12	0x3dd789df	0.10524344
13	0xbdc4fdc4	-0.096187145
14	0x3e28d1ba	0.16486254
15	0x3d34598c	0.04403071

6.weight f4 [32, 16, 3, 3]
0	0xbda38879	-0.079850145
1	0xbd66ada1	-0.05631793
2	0xbbd8f56c	-0.0066210534
3	0xbe118ee6	-0.14214668
4	0xbd02d233	-0.031938743
5	0xbdd2e9d8	-0.102985084
6	0x3c9fdbcb	0.019513985
7	0xbd7d00f0	-0.061768472
8	0xbd3373ea	-0.043811716
9	0x3c9a7558	0.018854782
10	0x3dbb175e	0.09135316
11	0x3d8c3db7	0.06847709
12	0x3da35791	0.07975686
13	0x3dcd50e7	0.100251965
14	0x3dd551c2	0.10415985
15	0x3de9c547	0.11414581
16	0x3d867cc9	0.0656677
17	0xba8a789e	-0.0010564511
18	0x3d7f6c67	0.06235924
19	0xbd1a97f0	-0.037742555
20	0x3d681667	0.05666199
21	0x3d83f81a	0.06443806
22	0x3dd2d4a1	0.10294462
23	0xbd31863a	-0.0433409
24	0x3da14393	0.07874217
25	0x3d828ead	0.063748695
26	0x3e016ff4	0.12640363
27	0xbd806bf4	-0.062705904
28	0xbdbe130d	-0.092809774
29	0x3d2da7ca	0.042396344
30	0xbdf682e7	-0.120366864
31	0x3cb86de8	0.022513345
32	0xbd448d15	-0.04798611
33	0x3b6e9ef2	0.0036410657
34	0x3d188056	0.037231766
35	0x3af3b723	0.0018594008
36	0x3d16eeb3	0.036848735
37	0xbcceb95a	-0.025234867
38	0xbcaf79f9	-0.021420466
39	0xbc84cd2f	-0.01621112
40	0x3d369e32	0.04458446
41	0x3d4cb7d8	0.049980015
42	0x3cef11e2	0.029183332
43	0xbd016148	-0.031586915
44	0x3d155e37	0.036466803
45	0xbc28c590	-0.010301009
46	0xbc25c909	-0.010118731
47	0x3d36817d	0.044557083
48	0x3d15eea9	0.036604557
49	0xbd40b5cb	-0.04704837
50	0xbdab057a	-0.08350654
51	0x3c6c0480	0.01440537
52	0xbaf90c7d	-0.0019000914
53	0xbd0b2a22	-0.033975728
54	0x3ce040b0	0.027374595
55	0xbd8b2522	-0.06794192
56	0x3d81f700	0.0634594
57	0xbd697818	-0.056999296
58	0x3c02d22b	0.007984678
59	0xbbd11d6b	-0.0063816807
60	0x3d19c350	0.03753978
61	0xbd97d393	-0.074134015
62	0xbd433dbe	-0.047666304
63	0x3c9601a9	0.018311338
64	0x3dfc3e92	0.12316622
65	0x3cb7b1c2	0.022423629
66	0x3ca51926	0.020153593
67	0x3ca671eb	0.020317992
68	0xbbe73401	-0.00705576
69	0x3cfddefc	0.030990116
70	0x3d3afa14	0.04564865
71	0x3b08b5c6	0.0020860299
72	0xbceb851a	-0.028749991
73	0xbcee924a	-0.02912249
74	0x3dbbdb70	0.09172714
75	0x3d42afc3	0.0475309
76	0x3d51c97e	0.05121755
77	0x3cad5803	0.021160131
78	0x3d08cddb	0.033399444
79	0x3cfcf2d4	0.030877508
80	0xbc0e1fb3	-0.00867455
81	0x3d84db65	0.06487159
82	0xbd0a3fe4	-0.033752337
83	0x3d431de8	0.047635943
84	0x3d620f49	0.05519036
85	0xbd1707e9	-0.036872778
86	0x3db41367	0.08792763
87	0x3a4c6d9e	0.00077983167
88	0x3cce1bc7	0.02515973
89	0x3e073e49	0.13207354
90	0x3d05ad64	0.03263606
91	0x3d38232a	0.04495541
92	0x3e07966a	0.13240972
93	0x3d4ea44c	0.050449654
94	0x3de188c9	0.11012418
95	0x3de1d82d	0.110275604
96	0x3dd6c380	0.104865074
97	0x3d19e9a3	0.03757633
98	0x3d1301e6	0.035890482
99	0xbd8859fc	-0.06657788
100	0x3d80abec	0.062827915
101	0x3dafb89c	0.08580133
102	0x3d843d4a	0.064570025
103	0xbc77f4b6	-0.015134027
104	0xbd3450de	-0.044022433
105	0xbc9510f7	-0.018196566
106	0x3da39ade	0.07988523
107	0x3da993c6	0.08280139
108	0x3c17f309	0.009274253
109	0x3d1e6b5d	0.03867661
110	0x3d8cc8a2	0.06874205
111	0x3d9d8c31	0.07692755
112	0x3d406a62	0.046976455
113	0x3db4b880	0.08824253
114	0x3e03e4c2	0.12880233
115	0x3d16b864	0.036796942
116	0xbca952d3	-0.020669376
117	0xbc88c9a0	-0.016697705
118	0x3c977086	0.018486273
119	0xbd19584e	-0.03743773
120	0xbd804f03	-0.0626507
121	0x3d7f0f0b	0.062270205
122	0xbc612840	-0.0137425065
123	0xbda829a2	-0.08211066
124	0xbcc1447b	-0.023592224
125	0xbd87980c	-0.066207975
126	0x3d1cda20	0.038293958
127	0x3db56c97	0.088586025
128	0x3e0295aa	0.12752405
129	0x3de0a2fe	0.10968588
130	0x3d40cde0	0.047071338
131	0x3e03eec7	0.12884055
132	0x3e016640	0.12636662
133	0xb82326c0	-3.8898317e-05
134	0x3d5d16eb	0.053976934
135	0x3d7c4992	0.0615936
136	0x3da57801	0.080795296
137	0xbc842221	-0.016129555
138	0xbbc7978e	-0.006091065
139	0xbbb342cd	-0.0054706098
140	0x3cb3fed2	0.021972094
141	0x3c5a79c4	0.013334695
142	0x3da27672	0.07932748
143	0x3dc2b8b4	0.095078856
144	0x3d78c490	0.06073433
145	0xbd9d4adb	-0.07680293
146	0x3d45081e	0.048103444
147	0xbcfe091b	-0.031010201
148	0x3ce5a570	0.028032988
149	0xbc7349b6	-0.014849117
150	0x3d2e6386	0.04257538
151	0x3cdedbd6	0.027204435
152	0x3da8e19b	0.08246156
153	0x3d776003	0.0603943
154	0x3d9ca748	0.07649094
155	0xbc6a0f0b	-0.014285813
156	0xbd2a6310	-0.04159838
157	0xbd901c90	-0.07036698
158	0xbd8d2720	-0.06892228
159	0xbd962ae6	-0.07332401
160	0xbcd68b0b	-0.026189348
161	0x3d8c850e	0.06861316
162	0xbd6670c6	-0.056259893
163	0xbd99c68c	-0.07508573
164	0x3cf1a98b	0.02949979
165	0xbd290c08	-0.04127124
166	0xbcfa023b	-0.030518642
167	0xbcf523fb	-0.029924383
168	0x3da3cf7f	0.07998561
169	0x3d931d50	0.07183325
170	0x3d9dc25a	0.07703085
171	0xbd713830	-0.058891475
172	0x3d18e933	0.03733177
173	0x3c9fb956	0.019497555
174	0xbce54166	-0.027985286
175	0xbccdaf2b	-0.02510794
176	0xbd6430d0	-0.055710614
177	0x3d0d23c8	0.03445795
178	0x3d533f40	0.05157399
179	0xbd1e25ee	-0.03861039
180	0xbd66a44b	-0.056309026
181	0xbc9d09eb	-0.019169768
182	0x3d377ee6	0.044798754
183	0xbd40ead8	-0.047098964
184	0xbcf0fc56	-0.029417198
185	0x3c4d47f6	0.012529364
186	0x3d5b486e	0.05353587
187	0xbc2a7336	-0.010403445
188	0x3b270f56	0.0025491319
189	0x3d37fee8	0.044920832
190	0xbc8f9a7b	-0.017529717
191	0xbda08407	-0.07837682
192	0x3d992708	0.07478148
193	0x3c74750b	0.014920483
194	0x3d71baf6	0.05901619
195	0x3d08ac40	0.033367395
196	0xbd4afa38	-0.049555033
197	0xbd6a3c20	-0.057186246
198	0x3d2acef0	0.041701257
199	0xbd8fb836	-0.07017557
200	0x3d07a5f0	0.033117235
201	0x3c19026b	0.009338955
202	0xbd3c6c53	-0.046001744
203	0x3d72eb4e	0.059306435
204	0x3d911470	0.07083976
205	0x3c78c4b6	0.015183618
206	0x3d91ea5f	0.07124781
207	0x3d8b5a6e	0.068043575
208	0xbc92ec20	-0.017934859
209	0xbd3f0d20	-0.046643376
210	0x3ae9a3ab	0.0017825266
211	0x3d029d20	0.031888127
212	0x3cc13b6b	0.023587903
213	0x3d9a3088	0.07528788
214	0xbd659b76	-0.056056462
215	0xbd4bd71b	-0.049765687
216	0x3c6ab156	0.014324507
217	0xbd0cd1bb	-0.034379702
218	0xbd25788e	-0.040398173
219	0x3d811d8f	0.06304466
220	0xbd112ec3	-0.035444986
221	0xbcb25bf6	-0.021772366
222	0x3bc1952b	0.005907675
223	0x3bc410ab	0.0059834323
224	0xbd9f41e0	-0.077762365
225	0xbd2fda1b	-0.04293261
226	0xbd8503a7	-0.06494837
227	0x3d2ab23e	0.04167389
228	0x3c491e8b	0.012275348
229	0xbd8a8fca	-0.06765707
230	0x3d9238f2	0.07139768
231	0x3d4edbbe	0.05050253
232	0xbd966aec	-0.073446125
233	0x3d8fc9c7	0.07020908
234	0x3c76cff6	0.01506423
235	0x3d5622ae	0.052279167
236	0x3d88f956	0.06688182
237	0xbce34286	-0.027741682
238	0xbda4beb4	-0.08044186
239	0x3b6d50d6	0.0036211512
240	0x3ca94846	0.020664345
241	0x3d26905e	0.040665023
242	0xbd6b98e3	-0.05751885
243	0xbd318b5e	-0.0433458
244	0x3bca54ab	0.006174644
245	0x3da39da4	0.07989052
246	0x3ce740f6	0.028229218
247	0xbd53f720	-0.05174935
248	0x3d7ffbfb	0.062496167
249	0x3d77a97b	0.060464364
250	0xbd8a3668	-0.067486584
251	0x3d946a33	0.072468184
252	0x3d91ccb4	0.07119122
253	0xbd0ae6cb	-0.033911508
254	0xba2a54ab	-0.0006497602
255	0x3d43441b	0.047672372

6.bias f4 [32]
0	0x3e0e41af	0.13892244
1	0xbd84a8f4	-0.06477538
2	0xbd9cd346	-0.07657485
3	0x3d1b59a7	0.037927296
4	0xbd22e2e4	-0.03976716
5	0x3c40b61f	0.011762171
6	0xbd2428a0	-0.040077806
7	0xbd4eda2c	-0.050501034
8	0x3e0b9a6b	0.13633125
9	0xbce9fcf5	-0.028563002
10	0x3c97577e	0.018474337
11	0x3dc41bfb	0.09575649
12	0x3d69e211	0.05710036
13	0x3dd5f412	0.10446943
14	0x3d660674	0.056158498
15	0x3e06e34b	0.13172643
16	0xbd169412	-0.036762305
17	0x3d996f22	0.074919
18	0xbd8aef32	-0.06783904
19	0x3dc0d7c7	0.09416156
20	0x3d3b4409	0.04571918
21	0x3d8e2267	0.069401555
22	0x3dae895d	0.08522294
23	0xbd6c519c	-0.057695016
24	0xbda8ffa1	-0.08251882
25	0x3dc56c16	0.096397564
26	0x3d1aeec9	0.03782538
27	0x3decc7ef	0.11561572
28	0x3dcf2de5	0.101161756
29	0xbd6ea194	-0.05825956
30	0xbbb20436	-0.005432631
31	0x3d464772	0.04840798

8.weight f4 [64, 32, 3, 3]
0	0x3ce930d0	0.028465658
1	0x3d4d45e8	0.050115496
2	0xbc90a7f4	-0.017658211
3	0x3ca23630	0.01980123
4	0x3c29ff8e	0.01037587
5	0x3c10b139	0.008831316
6	0xbcde5c5c	-0.02714365
7	0x3d1d78d7	0.03844532
8	0xbcbe6ac4	-0.02324427
9	0x3c928be0	0.017888963
10	0x3d4d4d60	0.05012262
11	0xbc3d2dbe	-0.01154655
12	0x3d32878a	0.04358629
13	0x3ad5643e	0.0016280485
14	0x3ce78e1e	0.028266009
15	0xbc83b1b4	-0.016075946
16	0x3d6db7a6	0.05803647
17	0xbc9451f4	-0.018105485
18	0x3d70560a	0.058675803
19	0x3c3b01df	0.01141402
20	0x3d0f26ac	0.03494899
21	0xbc548d66	-0.012973165
22	0xbd3f0cc7	-0.046643045
23	0x3c3d960b	0.011571418
24	0x3cc13faa	0.023589928
25	0xbb2e2971	-0.0026574994
26	0x3c52a2ba	0.01285618
27	0xbd0c0404	-0.034183517
28	0x3c6b9101	0.014377833
29	0x3d6b8865	0.057503123
30	0x3ae6574d	0.0017573625
31	0x3d25b915	0.04045971
32	0x3d94b1d8	0.072604835
33	0x3d25f920	0.040520787
34	0x3d84474b	0.064589106
35	0x3e037c73	0.12840442
36	0xbca30dea	-0.019904096
37	0xbcbd3582	-0.023096804
38	0x3bbe35bb	0.005804745
39	0x3c8ac526	0.01693971
40	0x3d5d56e4	0.054037943
41	0x3d6e459a	0.058171846
42	0xbd13461c	-0.035955533
43	0x3ba50244	0.0050356705
44	0x3ca22093	0.019790923
45	0x3d55ebb8	0.052226752
46	0xbd4caf80	-0.049972057
47	0x3d571be5	0.052516837
48	0x3d7f6349	0.062350545
49	0xbc40a4ac	-0.011758011
50	0xbc037392	-0.00802316
51	0x3d3758d5	0.04476245
52	0x3cb64d9b	0.022253802
53	0xbd2240cc	-0.039612576
54	0x3afb83bb	0.0019189039
55	0x3a450d6e	0.0007516955
56	0xbc93f358	-0.018060371
57	0x3d7b4e5c	0.061354026
58	0x3dc7591a	0.09733792
59	0x3d8569c0	0.06514311
60	0x3d867d0d	0.0656682
61	0x3aa7f60f	0.001281442
62	0x3c3462ba	0.011009866
63	0xbb3b0b81	-0.0028540792
64	0x3d1fcfd6	0.039016567
65	0x3d6332c4	0.055468336
66	0x3d182b45	0.03715064
67	0xbd1942d4	-0.037417248
68	0x3d4637a0	0.048392892
69	0x3d577b96	0.052608095
70	0x3d5230b4	0.05131598
71	0x3cfc2c14	0.030782737
72	0x39c34089	0.0003724138
73	0x3d6cedb4	0.05784388
74	0x3c5b88a2	0.013399275
75	0x3daeec63	0.08541181
76	0x3d6c7456	0.057728134
77	0xbc9247fa	-0.017856587
78	0x3d623f7e	0.055236332
79	0x3b4b240c	0.0030996827
80	0x3d38b253	0.04509194
81	0xbbe01a39	-0.0068390635
82	0x3d281d47	0.041043546
83	0x3d43c9af	0.047799762
84	0x3c2e9779	0.010656231
85	0x3d8a71d7	0.067599945
86	0x3d420e70	0.04737705
87	0xbb8ef46e	-0.0043626344
88	0x3d310624	0.043218747
89	0x3d873a16	0.06602876
90	0xbc93802e	-0.018005457
91	0x3cc289c6	0.023747336
92	0x3d63139d	0.055438627
93	0x3d505a5f	0.050867435
94	0x3d9e6513	0.07734122
95	0x3d846add	0.06465695
96	0x3c0c4374	0.008561004
97	0x3d83b3bc	0.06430766
98	0xbc425f5d	-0.011863557
99	0xbd6c6ccb	-0.05772094
100	0xbd44d636	-0.04805585
101	0x398873c5	0.00026026196
102	0x3cae1360	0.021249473
103	0xbd25a3d9	-0.04043946
104	0x3bc8fd9f	0.0061337496
105	0xbd623abc	-0.055231795
106	0x3cd16c00	0.025564194
107	0x3cc48b3a	0.02399217
108	0x3d076365	0.033053774
109	0x3c8f58e7	0.017498447
110	0x3d3445b2	0.04401178
111	0x3d3fd579	0.046834443
112	0xbcb7f940	-0.022457719
113	0x3d1fcd8d	0.039014388
114	0x3c527515	0.012845297
115	0x3d4906ad	0.049078632
116	0x3c7977d5	0.015226324
117	0xbbe48cec	-0.006974807
118	0x3c403b6b	0.011732916
119	0xbc90cf3e	-0.017676946
120	0x3d69dc79	0.057095025
121	0x3ce05eef	0.027389018
122	0xbd5a446b	-0.053287905
123	0xbd04857c	-0.032353863
124	0x3d29788e	0.041374736
125	0xbd669dbc	-0.05630277
126	0xbc115efd	-0.008872745
127	0xbd118915	-0.035531122
128	0x3cca6056	0.02470414
129	0xba97a0f4	-0.0011568354
130	0x3ce74321	0.028230252
131	0xbcb28f37	-0.021796806
132	0xbce31c33	-0.027723407
133	0xbc8da1af	-0.01728901
134	0x3d3f5491	0.04671151
135	0xbb30e024	-0.0026989067
136	0xbc66ccad	-0.014086884
137	0x3d7f301d	0.062301744
138	0xbc31190d	-0.010809195
139	0x3d745bec	0.059657976
140	0x3d602360	0.054721236
141	0x3be038ce	0.006842709
142	0x3d3bb81d	0.04582988
143	0x3d8217fa	0.063522294
144	0xbc6f0468	-0.014588453
145	0x3c5424e1	0.012948246
146	0x3b6cad82	0.003611416
147	0xbcb4a818	-0.02205281
148	0xbc4df7f1	-0.012571321
149	0xbd395a91	-0.045252386
150	0x3cfe2ca1	0.03102714
151	0x3b78c3f2	0.003795859
152	0x3b43fc41	0.0029904994
153	0xbd5c3f9b	-0.053771596
154	0x3c07dc76	0.008292308
155	0x3cdfbb20	0.027310908
156	0x3c608fe1	0.013706178
157	0x3d96ae17	0.07357424
158	0x3c9979f4	0.01873491
159	0xbd2388de	-0.03992545
160	0x3d77b5ad	0.060475994
161	0x3dcf8e64	0.10134581
162	0x3c132376	0.0089806225
163	0xbca61d7f	-0.020277737
164	0xbd3ccff6	-0.046096765
165	0xbd30f4d7	-0.043202247
166	0x3c1fb516	0.009747764
167	0xbcc6ccac	-0.024267517
168	0xbbe86d61	-0.007093117
169	0xbd282201	-0.041048054
170	0xbc48af6c	-0.012248855
171	0x3d5350aa	0.0515906
172	0x3e07b6a5	0.13253267
173	0x3cf62c53	0.030050432
174	0x3d176da4	0.036969796
175	0x3d96cfbf	0.07363843
176	0x3ddd8088	0.10815531
177	0x3dcc83fb	0.09986111
178	0x3dc09193	0.09402766
179	0xbb354f9f	-0.0027665866
180	0x3c885f67	0.016647054
181	0x3def3132	0.11679305
182	0x3e0245af	0.12721895
183	0x3d10f050	0.03538543
184	0x3d07b364	0.033130065
185	0x3e0cec90	0.13762116
186	0x3b5c0ad3	0.0033575788
187	0x3dfaa833	0.12239113
188	0x3d03edb5	0.032209117
189	0x3d025c7a	0.031826474
190	0x3cff7acd	0.031186486
191	0xbcff442b	-0.031160435
192	0xbd204526	-0.039128445
193	0xbcb04f34	-0.021522142
194	0x3d517f53	0.051146816
195	0xbb5f1a82	-0.00340429
196	0x3d32f5ff	0.04369163
197	0x3c0f6083	0.0087510375
198	0xbd7948ea	-0.060860552
199	0xbce50293	-0.027955329
200	0xbcfcf82e	-0.03088006
201	0x3d359adb	0.044337135
202	0xbd1f9d8d	-0.03896861
203	0xbd64041d	-0.055667985
204	0xbcdf2b6e	-0.027242389
205	0x3d4e61bf	0.050386187
206	0xbd605769	-0.05477086
207	0xbcf75080	-0.030189753
208	0xbd291d41	-0.041287664
209	0x3bd531eb	0.006506195
210	0xbd629347	-0.055316236
211	0xbd5cab89	-0.053874526
212	0xbd241557	-0.040059414
213	0x3ce57fa8	0.028014973
214	0xbcb45eda	-0.022017885
215	0xbd6461bf	-0.05575728
216	0xbbe530d8	-0.006994348
217	0x3d04a2d0	0.032381833
218	0x3d647f6b	0.055785578
219	0xbd414c3d	-0.047191847
220	0x3cd2fadd	0.025754387
221	0xbd5562dd	-0.052096236
222	0xbd3a1052	-0.04542572
223	0x3ceb09a9	0.02869113
224	0xbd17b771	-0.037040178
225	0x3ce9bb5e	0.028531726
226	0x3d263a22	0.040582784
227	0x3d0524c2	0.032505758
228	0x3c27d0a9	0.01024262
229	0x3d4c0db1	0.049817745
230	0x3d48368a	0.048880138
231	0xbd1e34f5	-0.038624723
232	0x3d5f2858	0.054481834
233	0xbd80ae53	-0.0628325
234	0x3c8b84a5	0.017031023
235	0x3c847344	0.016168244
236	0xbcc7c200	-0.024384499
237	0xbcd50546	-0.026003491
238	0xbc3372cf	-0.0109526655
239	0xbd7f691b	-0.062356096
240	0xbd29778c	-0.041373774
241	0x3c70afd2	0.014690356
242	0x3c3db91d	0.011579779
243	0xbd268232	-0.040651508
244	0x3d4862f6	0.0489225
245	0x3c6a3af1	0.014296279
246	0xbcd1281e	-0.025531825
247	0xbcaa7939	-0.020809757
248	0xbd3385d9	-0.04382882
249	0x3d6525c1	0.055944208
250	0x3d314802	0.043281563
251	0xbc7c2ea1	-0.015391977
252	0xbccac9ed	-0.024754489
253	0x3c2e5cbe	0.010642229
254	0xbd6445af	-0.055730518
255	0x3d260a32	0.040537067

8.bias f4 [64]
0	0x3da1fe91	0.07909883
1	0xbd2c0b17	-0.042002764
2	0xbb23b11c	-0.0024977392
3	0x3c079f07	0.008277661
4	0xbcbc617a	-0.0229957
5	0x3d8fe7b1	0.070266135
6	0x3d515ee3	0.05111588
7	0x3a20c14c	0.0006132319
8	0xbd69bb56	-0.057063423
9	0xbd75c64a	-0.060003556
10	0xbd5737e2	-0.05254353
11	0x3c47924f	0.012180879
12	0x3c4e2099	0.012581014
13	0x3d7efc2b	0.062252205
14	0x3d7b9e62	0.061430342
15	0xbc199349	-0.009373494
16	0x3c2ec00d	0.010665906
17	0xbb42f302	-0.0029746895
18	0x3d0fd3d4	0.035114124
19	0x3bc92c89	0.006139342
20	0xbd735acc	-0.059412763
21	0xbc94fdf2	-0.018187497
22	0x3d312f62	0.04325808
23	0xbd44c1fe	-0.048036568
24	0xbd76eeda	-0.06028638
25	0x3cae93ee	0.021310773
26	0x3a4bb9f8	0.0007771547
27	0x3d7c8d80	0.061658382
28	0x3d53c31b	0.05169974
29	0xbd3b7b06	-0.04577162
30	0x3d7face1	0.06242073
31	0x3d2b69a0	0.04184878
32	0xbcbebd37	-0.023283584
33	0x3d757c5a	0.059933044
34	0xbd0cdcf7	-0.034390416
35	0xbd6a7679	-0.05724189
36	0xbc72c140	-0.014816582
37	0xbd49e52a	-0.049290814
38	0xbd7ee25c	-0.062227592
39	0x3a6c7042	0.0009019413
40	0xbd1bc79e	-0.038032167
41	0x3d402960	0.04691446
42	0xbc26a057	-0.010170064
43	0x3aad3a67	0.0013216258
44	0xbcdc3f3c	-0.026885621
45	0x3d0e41da	0.03473077
46	0xbb8107d4	-0.0039377008
47	0x3d06dfe0	0.032928348
48	0xbb36ba9c	-0.0027882224
49	0x3dacb024	0.08432034
50	0x3b51c980	0.0032010972
51	0xbc9fbf49	-0.019500392
52	0x3d654c79	0.055981133
53	0x3c8d71cf	0.017266182
54	0x3d232ccd	0.039837647
55	0xbd50369a	-0.050833322
56	0xbd0121c9	-0.03152636
57	0xbd20e7da	-0.03928361
58	0x3d1be572	0.038060613
59	0xbd5deeda	-0.054182865
60	0xbcd98395	-0.026552001
61	0x3d50871a	0.050910093
62	0x3ca4c798	0.020114705
63	0xbcfa09d1	-0.030522259

10.weight f4 [2, 64, 1, 1]
0	0xbdf88c99	-0.12136192
1	0x3d7e2dcb	0.06205539
2	0x3d2da523	0.042393815
3	0x3deae706	0.114698455
4	0xbcc69268	-0.024239734
5	0xbdc5b5b8	-0.09653801
6	0xbe3762b7	-0.1790875
7	0xbde81081	-0.11331273
8	0xbd6a4cc7	-0.057202127
9	0x3d9ea8c4	0.07747033
10	0xbd9a0524	-0.07520512
11	0x3e234f7f	0.15948294
12	0x3e0ba75f	0.13638066
13	0x3d8330ec	0.064058155
14	0xbd09faee	-0.03368657
15	0x3dafe7a8	0.08589107
16	0xbdffdcd3	-0.12493291
17	0xbcec4590	-0.028841764
18	0x3d62f9d1	0.055414025
19	0x3cefd5d5	0.029276768
20	0x3c8ea865	0.017414281
21	0x3d95063c	0.0727658
22	0x3d8d00dd	0.0688493
23	0xbc89ba18	-0.01681237
24	0xbd1f1ed0	-0.038847744
25	0x3d7c00b9	0.061524127
26	0x3d8496c0	0.06474066
27	0xbde0bfae	-0.1097406
28	0xbdbf7d95	-0.09350125
29	0xbca67465	-0.020319173
30	0x3d483a72	0.048883863
31	0x3d92ff42	0.07177593
32	0xbdf2ab0d	-0.118490316
33	0xbd832335	-0.064031996
34	0xbc67858e	-0.014130963
35	0xbc929abb	-0.017896047
36	0x3b71323e	0.0036803628
37	0x3d4561a9	0.04818884
38	0x3d130c1f	0.03590023
39	0xbdbcdfa4	-0.092223436
40	0x3cb116f0	0.021617383
41	0x3c2a7f53	0.010406333
42	0x3ce99649	0.028514044
43	0x3d03b797	0.032157507
44	0x3dbfd3b4	0.09366551
45	0xbdbcdb87	-0.09221559
46	0xbde652aa	-0.11246236
47	0x3d68152f	0.056660827
48	0xbe01bd5d	-0.12669893
49	0xbda53e1f	-0.08068489
50	0xbe0dbf6a	-0.1384255
51	0xbd6993ea	-0.057025827
52	0xbe079182	-0.132391
53	0x3d1c9234	0.038225368
54	0x3cd61978	0.026135191
55	0x3d89b80e	0.06724559
56	0xbcfad5f8	-0.030619606
57	0xbb091045	-0.0020914238
58	0xbd9ccf01	-0.0765667
59	0xbdfadb86	-0.12248902
60	0x3d9111e2	0.07083489
61	0x3d59eb41	0.05320287
62	0x3e1a0340	0.15040302
63	0x3cbc225a	0.022965599
64	0xbe003ea2	-0.12523893
65	0x3d457128	0.048203617
66	0x3e10ec52	0.14152649
67	0xbdbd3e37	-0.09240382
68	0xbcabd738	-0.020976648
69	0xbdac5f15	-0.08416573
70	0xbce3631b	-0.027757218
71	0xbdc0926e	-0.09402929
72	0xbd2cb0b7	-0.042160716
73	0x3de562e7	0.11200505
74	0x3cc38150	0.023865372
75	0xbc587d70	-0.0132135
76	0xbd001a11	-0.03127486
77	0x3e1f24df	0.15541409
78	0xbd28e39f	-0.0412327
79	0xbdf6d7c2	-0.12052871
80	0x3dcc7063	0.099823736
81	0xbd8342ec	-0.06409249
82	0xbdb80bb9	-0.08986611
83	0x3d9936af	0.07481133
84	0xbce5e25b	-0.028062036
85	0x3dd11768	0.102095425
86	0x3dd8430d	0.10559664
87	0xbcc4c2f0	-0.024018735
88	0x3de7d9cd	0.11320839
89	0x3d56dbb5	0.052455623
90	0x3d38a702	0.045081146
91	0xbd08b9a0	-0.03338015
92	0x3de8df60	0.113707304
93	0xba895606	-0.0010477907
94	0xbe184f32	-0.1487396
95	0x3c8f1541	0.01746619
96	0x3a5f2b13	0.00085131935
97	0xbcff0000	-0.03112793
98	0x3d5e49c0	0.054269552
99	0xbd9bd0a9	-0.07608158
100	0xbdb17c21	-0.08666254
101	0xbde29904	-0.11064342
102	0xbd45929c	-0.04823552
103	0xbc28a179	-0.010292404
104	0x3d8df7bb	0.069320165
105	0x3e10d411	0.14143397
106	0x3df7f43d	0.12107132
107	0x3dc37732	0.09544219
108	0xbda6305c	-0.081146926
109	0xbd2c8bb6	-0.042125426
110	0xbd6451d3	-0.055742096
111	0x3d68eeeb	0.056868475
112	0x3bf2650a	0.0073972987
113	0xbe0172e9	-0.12641491
114	0xbdbd970a	-0.09257324
115	0xbdd5f036	-0.10446207
116	0x3d9e2ed5	0.07723776
117	0x3d1fa9b7	0.038980212
118	0x3d8e387b	0.069443665
119	0xbcc0aba0	-0.023519337
120	0x3d531305	0.05153181
121	0x3d1ebaa0	0.0387522
122	0xbdba87ee	-0.09107958
123	0xbddafb4c	-0.10692462
124	0x3cae37f0	0.021266907
125	0x3dd15a64	0.10222319
126	0x3dc68eba	0.09695192
127	0xbdad6acb	-0.08467635

10.bias f4 [2]
0	0x3dba4913	0.09095969
1	0xbc8596d2	-0.016307268
