checkpoints/model_9.pt (torch, 103423 bytes, 12 tensors)

0.weight f4 [4, 2, 3, 3]
00000000: 38e0 a93d c3e6 2dbe e642 cdba 2859 9bbe
00000010: d5c6 6f3e 250d 2a3e 672a 3a3e 70d1 81bd
00000020: d6c0 083e 41dd 703e 1c35 25be 42c5 033d
00000030: 07ad 6bbe ef9d 913d 3bba 033e dd0e 09be
00000040: 08b5 98be 4b34 a4bd fe43 303e 185d 993d
00000050: 03ca a33d ed5d 203e 4b24 a2be f6ea 963d
00000060: dda5 6ebc 9f48 893e f1d0 0dbe 78c5 54be
00000070: 22df 1f3c 7ba6 123e 2fa3 283d b0bd 2bbe
00000080: 3a47 9d3d 3601 6f3e 3d53 ac3d a60f 89be
00000090: 2dc1 37be 8a0c 4ebe 97e4 113e fc63 96bd
000000a0: d2d3 533b d938 5e3e 0293 ca3c 2628 7d3e
000000b0: 60c9 69be 91d2 883c 7c24 94be aff0 cd3d
000000c0: d249 993d 562b 2bbd fde4 37be f5d5 d63d
000000d0: 8bef 9bbd ed4f 57bd 040f 8ebd 078f 8cbe
000000e0: 275c 37bd aefc 5e3e d4b6 f53d 4e87 4e3e
000000f0: 860e 63bc 2674 213e 7d7e 47be f3f5 103d
00000100: 7ae6 c1be da95 f03d f02d bbbe 53be 753e
00000110: 1349 92bd 11db dc3d 2ad8 e23d a74e c63d
0.082947195 -0.1698256 -0.0015660196 -0.30341458 0.23415692 0.16606577 0.18180238 -0.06338775
0.13354811 0.23521902 -0.16133541 0.03217054 -0.23015223 0.071102016 0.1286401 -0.13384576
-0.29825616 -0.080177866 0.17213437 0.07488459 0.07997515 0.1566083 -0.31668314 0.07369034
-0.014565912 0.26813218 -0.13849236 -0.20778453 0.009757789 0.1432132 0.04117125 -0.16771579
0.07679601 0.23340306 0.08414314 -0.2676975 -0.17944784 -0.20121971 0.14247356 -0.07343289
0.00323223 0.21701373 0.024728302 0.24722347 -0.22830725 0.016701968 -0.28934085 0.100556724
0.07484783 -0.041789375 -0.17958446 0.10490028 -0.076140486 -0.052566458 -0.06936458 -0.2745287
-0.044765618 0.21776077 0.11997762 0.20168802 -0.013858443 0.15766963 -0.19481845 0.035390805
-0.37871152 0.11747332 -0.36558485 0.23998384 -0.07142844 0.10783971 0.11076386 0.096829705

0.bias f4 [4]
00000000: 7793 86bc 3389 f7bd 5c8f 733e 9e85 7dbe
-0.016427739 -0.120867155 0.23785156 -0.24758002

2.weight f4 [8, 4, 3, 3]
00000000: 05b3 86be b043 8cbd a50f f43d 066b e6bd
00000010: 5645 abbe cb4b 3abe 8b6f 313e 4787 f63d
00000020: 048d 2f3d d6f3 323e 0577 743e 7d78 033d
00000030: e8ec 93bd 1689 e33d af8a 783e 2628 623e
00000040: 8043 94bd 3a6b 2c3c 014e fc3d 69e4 303d
00000050: 3223 62be d9d7 1bbd d233 f0bd f6a7 0a3e
00000060: 26cc 133e 5698 27be b7e3 393e 34e6 513e
00000070: de58 cfbb 581a 54be 7980 acbd d8df d0bb
00000080: dda2 a23d c2b3 d2bc d690 903d 679d 613e
00000090: 56c2 9ebe d21e 0c3e be34 4b3c b41f 253e
000000a0: 9e29 6ebe 21e3 903d aa78 b8be 809e 0d3e
000000b0: 7ee1 babe 53c3 103e 1252 b3bc 3067 2f3e
000000c0: 1a5e 20be d09c a53e 0689 ff3b bf70 ddbd
000000d0: 473f 7abe e05f 103e 5984 1f3e eec7 22bd
000000e0: 924b eebb c666 62bd 1f67 7e3e e413 5dbc
000000f0: 9d65 c1bc d899 493e 288c 333e fb1d 913d
00000100: b939 7ebe 39eb 28bd 68cf 4ebd a237 183e
00000110: 98d9 5b3d c2e5 13be e72e ea3a 9632 113d
00000120: f995 88bc f27e 513e af3f 423d 8c2d a3bb
00000130: 56bd c7bc 5371 f83d 5e27 a8bd 2502 a33b
00000140: 9d36 84bd 9fb5 0e3e e25a 803c 248b 073e
00000150: f6db 87be 68df 18bd 1e35 8fbd 2e3d 36bb
00000160: 9547 37be 65cf 49be e2d7 743d 7a27 9b3c
00000170: 9d91 94be 5034 303e d56d d8bd 723c 42be
00000180: b71c c33d dc08 86bc 2697 343e 3456 b2be
00000190: 06a4 4e3e 959e 92be 8e2e fdbc 740c 9fbe
000001a0: 9b31 3a3e 34a3 3a3e 1193 aebd 0ade 06be
000001b0: b7b8 4c3e 827a c23d 2942 ebbd b719 273e
000001c0: 82d9 663c 17a2 11be 825d 17be 8346 3bbe
000001d0: 43e0 47be 4f3c 823c ea5e 77bd 6953 0cbc
000001e0: 76c5 90bd 667b 0ebd 084b d3bd 20f2 823d
000001f0: c011 4bbe 9642 15be 7a11 1abc 543e b6bd
00000200: 14fa b73d 4700 343e de4e d7bc 1664 da3d
00000210: 0a20 ac3d cef8 be3c 9cd2 813d ed12 a43d
00000220: 660f 3abe 2b89 1bbe 0b30 1f3e 7299 bf3d
00000230: 39b4 1d3e 06dd 0d3e 64f5 113e 554e 393e
00000240: 14f5 b4bc c33a ffbd 90a9 1e3e 176b f0bc
00000250: 5bb2 603e e0cd 163e 6c48 243d 8767 343d
00000260: 744a 113e 09a5 3d3e ce67 9c3d 20f0 69be
00000270: 73ef 893e 2761 60be 45be 5bbe 964b a6bd
00000280: da1d abbd f8fd 57bd a1db f2bd 6866 d43d
00000290: b279 bb3d 160a 403e 2cce 193d f93b c23c
000002a0: fd3e fe3b 6cc8 983d 0367 bdbc 6409 fcbd
000002b0: ef44 02be b118 e63c ef47 2a3e b4d3 2bbe
000002c0: 63e4 973d 668b b3bd fa7d 44be 7d70 50bd
000002d0: 7f80 f13d 1e10 8dbd a488 383e d9ad 70bc
000002e0: 9b09 5cbe 683d b83d a6d9 8ebd 0f47 c43c
000002f0: 7cca 3cbe 1f90 9bbc 4547 77ba aafd 54bd
00000300: 83ec eabd 4d84 f7bd 6c4f 353e 3a79 aabd
00000310: 6ca9 5bbe 3ea6 84bc 99b7 e4bc f2bf 3d3d
00000320: e689 e3bd 0fc4 523e 2b4b 99bc 9b1d 8b3d
00000330: ee4a 043e 1376 78bc d620 283e dfc3 bdbc
00000340: 161d f5bd 072f 0bbe ee53 993e dfbd 6f3c
00000350: 6ad2 72bd 12d7 813d 5e5c 2e3e ee80 6a3a
00000360: 04fb 983d 1fae 603d 3434 d23d 7f73 393e
00000370: fc46 02be 7da6 ee3c 7262 463d 47f3 c03d
00000380: 46b8 a5bd 845e 493c cf6f ff3c b989 eabd
00000390: 46a1 2b3d 172a 5bbd 5b08 ce3c 8a6b 5b3e
000003a0: aab9 1abc 4c58 0cbc 009b 393e a0d2 efbd
000003b0: 7b27 303d d912 193e 695b fb3d 73d8 d23c
000003c0: d18e 403d 2ef4 02be 7069 373e 09bd eb3c
000003d0: 03a1 a2bd 210f c93d 377a 7b3d 76d4 a13d
000003e0: 3e27 8abd 1549 6c3e 4c07 2c3e 86c9 13bd
000003f0: 0320 cfbd 7a16 e13d 9931 813e c808 7e3c
-0.26308456 -0.06848848 0.119170465 -0.11250882 -0.33451337 -0.18192975 0.17327707 0.12037521
0.042859092 0.17475829 0.23873527 0.03209733 -0.07222921 0.111101314 0.24271654 0.22085628
-0.07239437 0.010523612 0.123195656 0.04318658 -0.22083738 -0.038047645 -0.11728634 0.13540635
0.14433345 -0.16366705 0.18153273 0.20497972 -0.0063277325 -0.20713174 -0.08422942 -0.0063743405
0.0794122 -0.02572048 0.07058875 0.220327 -0.31007642 0.13683632 0.012402711 0.16125375
-0.23258063 0.070745714 -0.3602956 0.13829994 -0.36500162 0.1413701 -0.02188972 0.17129207
-0.15660897 0.323462 0.007798317 -0.1081252 -0.24438201 0.14099073 0.1557783 -0.03974145
-0.0072721923 -0.055273794 0.24844025 -0.013493512 -0.023608023 0.19687593 0.17533934 0.070857964
-0.24826707 -0.04123995 -0.050490767 0.14864972 0.05367431 -0.14443114 0.0017866761 0.035448633
-0.016673075 0.20458582 0.047424015 -0.004979795 -0.024382275 0.1213099 -0.08210634 0.004974621
-0.06455729 0.1393647 0.015668336 0.13236672 -0.26535004 -0.03732243 -0.06992553 -0.0027807462
-0.178984 -0.19708021 0.059776194 0.018939722 -0.29017344 0.17207456 -0.10567824 -0.1896837
0.09526961 -0.016361646 0.17635784 -0.34831393 0.20179757 -0.28636613 -0.030905988 -0.31064188
0.18182985 0.1822632 -0.085241444 -0.13170639 0.19992338 0.09496023 -0.114872284 0.16318403
0.014089944 -0.14221989 -0.14781764 -0.18288617 -0.19519143 0.015897898 -0.06039325 -0.008564808
-0.07068913 -0.03478565 -0.103170455 0.06393838 -0.1983099 -0.14576182 -0.009403581 -0.08898607
0.089832455 0.17578231 -0.026282724 0.10663621 0.084045485 0.023311999 0.06338999 0.08011422
-0.18169937 -0.15189044 0.1554567 0.09355439 0.1540078 0.13853845 0.14253765 0.18096288
-0.022089519 -0.1246238 0.1549437 -0.02934794 0.21943037 0.14726973 0.04010813 0.044044044
0.14188558 0.18519987 0.07636987 -0.22845507 0.26940498 -0.2191206 -0.21459301 -0.081198856
-0.08355303 -0.052732438 -0.11858297 0.10371095 0.09154071 0.18753847 0.037550136 0.023710238
0.0077589736 0.074601024 -0.023120409 -0.123064786 -0.12721609 0.028087946 0.16629003 -0.16779977
0.07416608 -0.087668225 -0.19188681 -0.050888527 0.11792087 -0.0688784 0.18020874 -0.014689886
-0.21488039 0.08996087 -0.06975107 0.023959665 -0.18436617 -0.01898962 -0.0009432922 -0.051999725
-0.11470892 -0.12085781 0.17706078 -0.083239034 -0.21451348 -0.016192552 -0.027919577 0.04632563
-0.111102864 0.20582603 -0.0187126 0.06792756 0.12919208 -0.01516487 0.16418776 -0.023164688
-0.11968438 -0.13592158 0.29946846 0.014632671 -0.059282698 0.063398495 0.17027423 0.00089456036
0.074697524 0.054853555 0.10263863 0.18110465 -0.12722391 0.029132122 0.04843373 0.094214015
-0.08091788 0.012290601 0.031181244 -0.1145205 0.04190185 -0.053506937 0.025150469 0.21427742
-0.00944368 -0.0085659735 0.18125534 -0.117100954 0.0430064 0.14948596 0.122732945 0.025737977
0.0470112 -0.1278846 0.17911315 0.028776662 -0.07940867 0.09817339 0.06139585 0.07901852
-0.06745766 0.23074754 0.16799659 -0.03608086 -0.101135276 0.10990615 0.25233153 0.015505023

2.bias f4 [8]
00000000: fe04 22be 5e87 283b 03dc 8c3c 5829 3a3e
00000010: ee3a 853d 1f6f c0bc 56f4 523b 9c9c 10bd
-0.15822217 0.002571545 0.017194754 0.18179834 0.065053806 -0.023490487 0.0032189093 -0.035305604

4.weight f4 [16, 8, 3, 3]
00000000: 6955 afbd 57fc 173e e596 5bbd c8fb 56bd
00000010: 29c8 353e 9f6c a73e 0898 bf3c 96e9 1d3d
00000020: 30d9 3f3e 6dd5 07be a703 503e 2428 b23c
00000030: 825a 153e c845 e1bd 15c4 8f3e 7bb5 21be
00000040: c5ec 1d3e 288f 00be 9acc 40be 19a8 20bd
00000050: fdd4 8bbc 86ba 88bd 0071 23be 600d 3a3d
00000060: 3a05 c0be e114 21be 901d 3ebd 46e4 723d
00000070: 0dcd 433e 9922 5a3d 4641 a13c 7e26 42bc
00000080: b8d5 c53d 4986 933d e13c 043b 4ad7 cabd
00000090: 075b 1f3e 093b 06be 9d7f 9f3d 0ed2 1abe
000000a0: 1475 023d 6fb1 2ebe d2b8 353e b435 1fbe
000000b0: 04ed 353e be1a 023d 3971 3b3e 1288 5ebd
000000c0: a0bc 143e cc7d 103e b885 983d 4e77 0cbd
000000d0: 8a6a 193e 0a38 e63d c03b 96bb 3cd7 1c3e
000000e0: 9a2d b5bd a3c6 b43d 603f dabd 4397 103e
000000f0: 62f1 f8bc 8e23 5c3c cce0 b4bd bcf0 ff3c
00000100: d623 073e 2f52 d4bd 6d02 4a3e 688a 59bd
00000110: 8d0e 733d 4cc5 133c 9da1 283e 6dfa 073e
00000120: 2059 f53c efae a2be f866 60be eb06 12bc
00000130: 54a4 b2be 77b6 54be b408 103d d807 88be
00000140: 064b 56be 7042 60bd ca21 3abe 8dfb c43d
00000150: d165 2dbd e39e 43bd 610f 7cbe cc2f 61bd
00000160: 087a ef3d 2ec2 22be d0f3 583e 8848 d83d
00000170: c580 403b 0970 3c3e 4d55 f03d cf4b 6d3d
00000180: 81dc fa3d f8ae a93d 98f2 f93d a3ad 233e
00000190: 527e 27bd f2e2 5cbd 6936 44bd 32af ef3d
000001a0: 3d11 2cbd ab24 463e eca8 80bb c266 4f3e
000001b0: 5614 34bd d153 a13d 3751 f2bd 92fe 38bd
000001c0: c5ae b2bd bf35 bdbd f0af d43d f9aa 973d
000001d0: a072 6e3d a157 acbd e027 2bbd 97d0 643d
000001e0: 5cd4 a83d 1918 eb3d 0a31 a73d 81ec bf3c
000001f0: 3681 283d 3334 413e e9e7 043d 9acf 65bd
00000200: ae18 febb ac9b 133d 2653 11be c653 cd3d
00000210: 513c 69bd 9c8a e83d 9d0a 853c 2afd 4abd
00000220: ad4f 333e c76d 393e 2e2e 52bd 9478 803e
00000230: 8755 013e c55d 4e3d 713d e53d 3db7 16bd
00000240: 8495 dabd 1286 5fbe 2409 a9bc 21a8 f73d
00000250: a48d 7fbe 1b96 5abe 1b6a 893d 0edb a3bd
00000260: 08e5 73be 367b d1bb 18f1 46be 5975 1cbd
00000270: 1e4f 063d 3ebe 4ebd 8776 55be 1aaa 2fbe
00000280: 3008 623d db74 babc 23c3 4d3d 44f4 123e
00000290: fe0d 273e 9220 3b3d 969d 973e ed2c 713e
000002a0: 92a9 6d3e 7721 573e 605d 323e 0cf3 84bb
000002b0: 1fbc fb3d 87b0 083e 4a0a 83bd fb65 173d
000002c0: 7f3d 1a3d 92a7 423e 79d1 573d f3d2 603d
000002d0: 5ba2 b03d ecc2 983d aef7 a43d ef13 b43d
000002e0: ed0c 71bd 03c5 b23d 1527 713d 629a f5bc
000002f0: 951f a33d d52a 073d dc7d 83bd 0c11 bdbd
00000300: c7c6 263e bbef 553d 603c b73b 5167 973d
00000310: f2a4 bfbd 9f4c 063e d9a4 c33d b868 493d
00000320: 2b8f 283d 2d1e 4abd ff32 bdbd bec7 8bbd
00000330: 6781 1e3e 49da 613d 02af 463d 10d9 3abd
00000340: 7806 703d 16d3 8a3c 1b4b bfbd 3332 31bc
00000350: 3ee0 453d 4d83 c3bd f4f4 f63d 99ff 013e
00000360: 54c2 b63c 9915 23be 26a0 00be f4e9 8cbb
00000370: e11c f5bc 4e07 fe3c 2480 093d 080f 4e3d
00000380: a033 903c 0771 22be 7602 01bd cc96 d6bd
00000390: b078 53ba 1ccd 07be f170 bfbd db96 e8bd
000003a0: c9df 3dbd ff14 b3bd c306 00be 3f2b b3bd
000003b0: 9d81 653c e237 463d e0bd e4bd c31b c3bd
000003c0: cf8f 583d 059e f63c e360 893c fd4e 043d
000003d0: 028c bdbd 00e7 f93d 4dea c0bd 28b9 51ba
000003e0: 022b d03d e495 c13d bc8e 3bbd 37d3 ef3b
000003f0: de70 f2bd 9bd6 29ba 3ef9 fcbd 22a5 22bd
-0.085612126 0.14842354 -0.0536107 -0.05248621 0.17752136 0.3270006 0.023387924 0.038552843
0.18735194 -0.13265009 0.20313893 0.021747656 0.14585307 -0.10999638 0.28079286 -0.15791886
0.15422352 -0.1255461 -0.1882805 -0.03922281 -0.017069334 -0.066762015 -0.15961075 0.04542291
-0.37503988 -0.15730621 -0.04641491 0.05929973 0.1912119 0.05325565 0.019684445 -0.011849998
0.09659904 0.07203347 0.0020177888 -0.099043444 0.15562068 -0.13108458 0.07788012 -0.15119192
0.031849936 -0.17059873 0.17746285 -0.1554783 0.17766196 0.031763785 0.1830491 -0.054328986
0.1452508 0.14110488 0.0744738 -0.034293465 0.14982048 0.11241157 -0.0045847595 0.1531648
-0.088465884 0.088269494 -0.10656619 0.14120202 -0.030388538 0.013436211 -0.08831939 0.03124272
0.13197264 -0.10367238 0.19727488 -0.05311051 0.05934005 0.009019207 0.164679 0.13279124
0.029949725 -0.3177409 -0.2191428 -0.008912782 -0.34890997 -0.2077273 0.03516455 -0.26568484
-0.20927057 -0.05475086 -0.18176952 0.09618292 -0.042333428 -0.047758948 -0.24615242 -0.054977223
0.116931975 -0.15894386 0.21186757 0.10560709 0.0029373628 0.18402113 0.1173502 0.057933625
0.12249089 0.08285326 0.12204474 0.15984206 -0.040891953 -0.05392737 -0.047903452 0.11703338
-0.042008627 0.19349925 -0.003926387 0.20254043 -0.043964706 0.07877315 -0.11831897 -0.045164652
-0.08724741 -0.09238767 0.1038512 0.07405657 0.058214784 -0.084151514 -0.041786075 0.05586299
0.08243629 0.11479206 0.0816365 0.023428204 0.04113885 0.18867569 0.03244773 -0.056106187
-0.007754407 0.036037132 -0.14191875 0.10025744 -0.056942288 0.11354563 0.016240412 -0.049557842
0.17510863 0.18108283 -0.05131357 0.25091994 0.12630282 0.050382394 0.1119336 -0.036795843
-0.10673049 -0.21828488 -0.020634241 0.12092615 -0.24956375 -0.21346323 0.06709691 -0.08000766
-0.23817837 -0.0063928617 -0.19427907 -0.03819785 0.032790296 -0.050474398 -0.20845996 -0.17154732
0.05518359 -0.0227608 0.050234925 0.14350992 0.16313931 0.04568536 0.29612416 0.23552294
0.23209217 0.2100886 0.17418432 -0.0040572938 0.122917406 0.1334859 -0.06398447 0.03696249
0.037656303 0.19009236 0.052690003 0.054888677 0.08624717 0.074590534 0.08055054 0.087928645
-0.058850218 0.08728983 0.058875162 -0.029980842 0.07965008 0.032999832 -0.0642049 -0.09231767
0.16286765 0.052230578 0.005591914 0.07392753 -0.09357633 0.13115166 0.095529266 0.049172133
0.04115216 -0.049345184 -0.09238242 -0.06825207 0.1547905 0.055139814 0.048506744 -0.045617163
0.05859992 0.016946357 -0.09340497 -0.010815191 0.048309557 -0.09546528 0.1205844 0.12695159
0.02230946 -0.15926208 -0.12561092 -0.0043003503 -0.029920997 0.031009343 0.03356947 0.050307304
0.017602742 -0.15863429 -0.031496488 -0.10477981 -0.0008066995 -0.13261837 -0.09347714 -0.113568984
-0.046355996 -0.08744239 -0.1250258 -0.08748483 0.014007953 0.048393138 -0.11169028 -0.095267795
0.05287152 0.030104646 0.016769832 0.03230189 -0.0925522 0.12202263 -0.09419689 -0.0008000308
0.10164453 0.094524175 -0.04579042 0.00731888 -0.11837934 -0.0006478817 -0.12352227 -0.039708264

4.bias f4 [16]
00000000: 23dc 02bc ac06 293e 779c 313d 9ff2 823d
00000010: 587a f6bd 8116 56bd 58fd dfbd 389c d43d
00000020: 095c b93d 6858 b53d a4f6 073e 7f6c 46bd
00000030: 4704 7b3d 2729 eebd 07a2 f63d 1270 c03c
-0.007987055 0.16506451 0.043362107 0.063939326 -0.12035054 -0.052267555 -0.10936993 0.10381359
0.090507574 0.08854753 0.1327768 -0.048443314 0.061283376 -0.11628943 0.12042623 0.02349094

6.weight f4 [32, 16, 3, 3]
00000000: c33d ddbd d8d4 ccbd 42e7 023d 0efd 9abe
00000010: 47f7 65be 2bc1 59be 5ce7 52bd 9df4 42be
00000020: 01ef f3bd cca3 933d 00da b73d 878b 8d3d
00000030: f656 f03d 0d54 c53d 2828 f43d ea6b 053e
00000040: 9566 ae3d 2912 323d 9b92 ea3d f921 57bd
00000050: 1ea8 8d3d 970e 053e 1683 be3d c45b e5bc
00000060: 5b11 b73d 27b4 663d e830 0e3e 8112 80bd
00000070: 48c7 bdbd eb2a 2e3d 0302 f7bd a9e3 b73c
00000080: e63c 44bd edea 263b bc73 173d a83b fd3a
00000090: b3ee 163d 61b9 cebc 007a afbc 36cd 84bc
000000a0: 329e 363d d8b7 4c3d db11 ef3c 4861 01bd
000000b0: 375e 153d 900c 84bc 7b60 36bc 26ad 5d3d
000000c0: 5cb0 853c c890 89bd d680 acbd 33e4 f2b9
000000d0: 75fe 8ebc 4bb9 21bd bb09 d83b 8e0f 40bd
000000e0: ebf7 ac3d a28d 9fbd 47e9 ed3c ee06 703c
000000f0: 3dd3 873c e965 59bd affa d9bc 96de 05bd
00000100: 6a1c 053e 90ef 50bd c0d6 a2bd c96d 1bbd
00000110: a96a 0bbe 8288 b33d ebb1 c43d 7f9c 1cbc
00000120: 2e31 00be 04a7 a8bd 57a5 3d3d 25ee d4bd
00000130: 70c4 9fbc 5dc6 bcbc 4587 1dbc 9f22 b13d
00000140: 81d7 343d 07bd ce3d 602d 42bd e407 1d3d
00000150: 581e 703d 7d9c 26bd 4ba1 ed3d 9fdf 8f3c
00000160: 1fd5 3c3d 8589 2c3e 0b79 6d3d ba14 7e3d
00000170: d103 2f3e 8045 eb3d 4b14 d93d 1704 2b3e
00000180: 6477 123e 3140 723d 4fb1 c13d 9861 8abd
00000190: bb88 813d 8ba9 c83d 45cf 633d a6bb b4bc
000001a0: fd03 49bd 0a56 babc 10a8 9d3d 4b9f a33d
000001b0: 3648 c03c 30ee e13c 9278 993d 1373 e23d
000001c0: 3c8b 0d3d d145 d33d a4c6 1f3e 336b 273d
000001d0: dafe 2f3c 2e0b b93c 05f7 fc3c 4b7a 92bc
000001e0: 9682 c3bd 7644 3a3d 03dc ffbc 9897 15be
000001f0: 3a61 7abd fa52 a2bd 39c4 b13d 530c e33d
00000200: 05c7 463e fd0c 133e 44fd 56bb 1c33 453e
00000210: b80f 2e3e 5abf babb 6637 c73d d538 a83d
00000220: de0f a03d 9cd1 aebb 2512 4a3d 2d45 823b
00000230: f4ce 323d f342 863c 6236 a23d 8359 003e
00000240: 9a0a 273d db4a 9dbd 28a9 e83c 1b09 febc
00000250: baca 043c b649 73bc a297 b93c d6db de3c
00000260: 8d74 803d 34ae 253d 714a 683d 574b 0cbd
00000270: 5396 74bd 52d6 b8bd efad b5bd c8d1 bcbd
00000280: 82c1 3cbd 2675 483d cc06 9cbd a689 c2bd
00000290: 8ba7 1c3c 56e1 7abd f375 4ebd ddff 4bbd
000002a0: 55ed 763d 5b86 543d 0245 6a3d 3038 71bd
000002b0: 33e9 183d 56b9 9f3c 6641 e5bc 2baf cdbc
000002c0: d030 64bd c823 0d3d 403f 533d ee25 1ebd
000002d0: 4ba4 66bd eb09 9dbc e67e 373d d8ea 40bd
000002e0: 56fc f0bc f647 4d3c 6e48 5b3d 3673 2abc
000002f0: 560f 273b e8fe 373d 7b9a 8fbc 0784 a0bd
00000300: 0827 993d 0b75 743c f6ba 713d 40ac 083d
00000310: 38fa 4abd 203c 6abd f0ce 2a3d 36b8 8fbd
00000320: f0a5 073d 6b02 193c 536c 3cbd 4eeb 723d
00000330: 7014 913d b6c4 783c 5fea 913d 727c 483d
00000340: eb34 1abd 76f7 87bd 7838 7bbc 209d 023d
00000350: 4e47 873b 7713 633d 7ad6 98bd f221 8dbd
00000360: 35e9 b1bb bbd1 0cbd 2521 75bd 4b77 3c3d
00000370: c32e 11bd f65b b2bc 596d 4bbc ab10 c43b
00000380: 3a48 c7bd a787 80bd 91d5 adbd 06b5 b23c
00000390: 5d98 f5bb a0fa b2bd 148b 533d 8c73 fc3c
000003a0: 4fc4 bebd a45c 4e3d 5bc1 a0bb f62c 043d
000003b0: 5d2f 403d 9c10 43bd 7e18 cdbd 3208 86bc
000003c0: 1a5d 833a 2e1f a93c 8b36 9ebd 5e8b 31bd
000003d0: ab54 ca3b a49d a33d f640 e73c 20f7 53bd
000003e0: fbfb 7f3d 7ba9 773d 6836 8abd 336a 943d
000003f0: 3872 523d 9197 5cbd a79d a8bc 4d61 e33c
-0.10802796 -0.10001534 0.031958826 -0.3027119 -0.2245761 -0.21265094 -0.051490173 -0.19038625
-0.11910821 0.07208976 0.08977127 0.06911378 0.117353365 0.09635172 0.11921722 0.13029447
0.0851566 0.04347435 0.11453744 -0.052522633 0.069168314 0.12993847 0.093023464 -0.027997859
0.08938857 0.05632415 0.13885844 -0.06253529 -0.092665255 0.0425214 -0.120609306 0.022447424
-0.04790964 0.0025469617 0.036975607 0.0019320147 0.036848735 -0.02523488 -0.021420479 -0.016211133
0.04458446 0.049980015 0.029183319 -0.031586915 0.036466803 -0.016119272 -0.011131401 0.054120205
0.016319446 -0.06717068 -0.08423011 -0.0004632786 -0.017455319 -0.03948335 0.006592957 -0.046889834
0.08445724 -0.07790686 0.0290419 0.01465009 0.016580218 -0.053075705 -0.026608793 -0.032682978
0.1299912 -0.051009715 -0.079511166 -0.037946496 -0.13614906 0.08766271 0.09604248 -0.009558796
-0.1251876 -0.08234981 0.04630026 -0.10396985 -0.019502848 -0.023043806 -0.00961477 0.086491816
0.044150833 0.10094648 -0.047406554 0.038337603 0.058622688 -0.040676583 0.1160303 0.017562686
0.046101686 0.16849335 0.057976764 0.062031485 0.170913 0.114878654 0.10599574 0.16700779
0.14303356 0.05914325 0.09457647 -0.06756896 0.063249074 0.09797963 0.05561759 -0.022062134
-0.04907607 -0.022746105 0.07698071 0.07989367 0.023471933 0.027579397 0.074937 0.11057105
0.034556612 0.10316051 0.15603119 0.040873718 0.010741914 0.022588339 0.030879507 -0.01788058
-0.09546392 0.045475446 -0.03123284 -0.1460861 -0.06112788 -0.07925983 0.086800046 0.11086335
0.19411857 0.14360423 -0.0032804767 0.19257778 0.16998184 -0.0056990804 0.09727363 0.08213965
0.078155264 -0.005335046 0.04933371 0.0039755316 0.043654397 0.016389346 0.07920529 0.12534146
0.040781595 -0.07680293 0.028400972 -0.031010201 0.008104974 -0.014849117 0.022655312 0.027204435
0.0627223 0.040449336 0.056711618 -0.034251537 -0.059713673 -0.09025253 -0.08871066 -0.092197
-0.04608298 0.048939846 -0.07618484 -0.094989106 0.00956143 -0.061250053 -0.050405454 -0.049804557
0.06028493 0.051885944 0.057194717 -0.058891475 0.03733177 0.019497555 -0.027985286 -0.02510794
-0.055710614 0.03445795 0.05157399 -0.03861039 -0.056309026 -0.019169768 0.044798754 -0.047098964
-0.029417198 0.012529364 0.05353587 -0.010403445 0.0025491319 0.044920832 -0.017529717 -0.07837682
0.07478148 0.014920483 0.05901619 0.033367395 -0.049555033 -0.057186246 0.041701257 -0.07017557
0.033117235 0.009338955 -0.046001744 0.059306435 0.07083976 0.015183618 0.07124781 0.048946805
-0.037648123 -0.06638996 -0.015333287 0.031888127 0.004128373 0.055438485 -0.07462783 -0.0689124
-0.005429412 -0.034379702 -0.059846062 0.046012204 -0.035444986 -0.021772366 -0.012416207 0.0059834323
-0.09730573 -0.06275874 -0.08488 0.021814834 -0.0074949698 -0.08739209 0.051646307 0.030816816
-0.09314787 0.050381318 -0.0049058623 0.03226944 0.04692017 -0.04762326 -0.10014437 -0.01636133
0.0010022253 0.02064475 -0.07725247 -0.0433458 0.006174644 0.07989052 0.028229218 -0.05174935
0.062496167 0.060464364 -0.067486584 0.072468184 0.05137846 -0.053855482 -0.020582987 0.027756358

6.bias f4 [32]
00000000: dafc df3d 09e5 adbd 8de0 a4bd 8509 093d
00000010: e4e2 22bd 5435 7d3d 3ebc 323b 2cda 4ebd
00000020: 75ea 043e fc3f 0fbc 8881 a23d a65e 753d
00000030: c31a 223d 4ce3 8d3d 054b d13c e2af e13d
00000040: b99a 2fbd 6c36 823d 32ef 8abd 50df 0a3e
00000050: 016f 373c fdf7 1b3d 9926 473d 7e03 55bd
00000060: a1ff a8bd 17dd 8a3d 01e7 1a3d 10bd c53d
00000070: 9815 9c3d 66cf 6dbd f185 2dbd d828 bc3c
0.109368995 -0.084909506 -0.08050642 0.033456344 -0.03976716 0.061818436 0.0027272846 -0.050501034
0.12980063 -0.008743282 0.079348624 0.059904717 0.039576303 0.06928119 0.025548467 0.11019875
-0.042872164 0.063580364 -0.06783904 0.1356175 0.011195899 0.038078297 0.048620794 -0.052005284
-0.08251882 0.06780451 0.03781796 0.096552014 0.07621306 -0.05805912 -0.042364065 0.022968695

8.weight f4 [64, 32, 3, 3]
00000000: f67d cc3c 8078 513d 51c4 78bc 5010 793c
00000010: 4994 833c de50 0e3c 80b4 18bd 2ce2 063d
00000020: c697 ecbc e08b 923c 604d 4d3d be2d 3dbc
00000030: 8a87 323d 3e64 d53a 1e8e e73c b4b1 83bc
00000040: a6b7 6d3d f451 94bc a385 d53d 20b7 da3c
00000050: 7e9a 3e3d 1658 e8ba d619 7fbd 2e2e 933c
00000060: b72d 173d e2c8 cebc 8741 5b3b 5a45 293e
00000070: 87bc 943e 931f ab3e 7a99 da3d f5ea 9e3e
00000080: ea18 f83e 8a16 d73c 844a 473e 9e6f f83e
00000090: ea0d a3bc 8235 bdbc bb35 be3b 26c5 8a3c
000000a0: e456 5d3d 9a45 6e3d 1c46 13bd 4402 a53b
000000b0: 9320 a23c ea97 7f3d fa73 2ebd 4a56 bb3d
000000c0: 8959 c13d 46a2 643c 91b1 53bb a74e 6c3d
000000d0: 180b 803a 81b9 82bd b00a 9c3c e47e 303d
000000e0: 4944 3a3c 1521 ae3d d1b2 fe3d e171 893d
000000f0: 3875 8c3d 6c0f f63c 0853 2039 810b 3bbb
00000100: d6cf 1f3d c432 633d 452b 183d d442 19bd
00000110: a037 463d 967b 573d b430 523d 142c fc3c
00000120: 28ea 883b c604 803d ec9d 9e3c 1914 c83d
00000130: 9ef6 9c3d cd5e 36bb 3411 063d 43e4 3f3c
00000140: 2bd6 d83c 672a 6dbc d699 203d 2458 783d
00000150: 0b98 893b 8e05 b23d 5154 2d3d e6c2 b3bc
00000160: a27e 393d 1127 af3d 97ec 933c 76a6 f53c
00000170: 2de1 c03d a766 963d 1247 d93d d4f2 b63d
00000180: ab0d 063d df7e 993d 8cd9 3dbc dafc 7cbd
00000190: 802a 3dbd 42ed 883a e35b 743c 2379 27bd
000001a0: 59f3 073c ef60 98bd 20bd a93c bea9 813c
000001b0: 65ba 033d 4f95 c43c 1fa9 663d 5703 063d
000001c0: 9e9e 04bd db35 f73c f12b 303c 1373 093d
000001d0: 0448 a13b 190c 3ebc 8e5c 043c 5138 9cbc
000001e0: c098 4d3d ca72 003d 5d58 63bd 0a80 2fbd
000001f0: adb9 093d aeee 79bd 3433 27bc 851d 06bd
00000200: 95e8 b93c f228 67bb 7dab ed3c 0fc7 bdbc
00000210: dd39 3bbd abbf 89bc 14c7 113d d3d9 f3bb
00000220: b89b 62bc e3e5 833d 6e58 85bb 9b07 b43d
00000230: 0393 a13d ceeb 9fbc b97c 173d 5ee4 843d
00000240: d0b2 5abc d860 603c ee01 d03b d177 a7bc
00000250: 67fe 84bc 30e7 31bd 8253 d53c d739 1eba
00000260: 79aa 4fbc 60a5 97bd b62e 9c3a eae5 943c
00000270: 9035 9638 fa08 a83d 1474 8e3c 354f 9abd
00000280: 0814 803d 282c ac3d 7623 133c 7f1d a6bc
00000290: f6cf 3cbd d7f4 30bd 16b5 1f3c accc c6bc
000002a0: 5c6d e8bb 0122 28bd 6caf 48bc 6b90 b63d
000002b0: 8675 323e 3b1f 8c3d e2d3 9f3d b076 083e
000002c0: 84f3 133e bf6d 123e 31f1 fe3d 1049 ae3c
000002d0: 659f e53b 4992 073e fee6 0f3e 4be6 153d
000002e0: 64b7 573d 26fd 243e d588 d9bb 9e79 043e
000002f0: fc00 2c3d 04df db3c 7a91 103d b756 eebc
00000300: 5ce4 30bd c5c6 cbbc 6b0d 623d 0a93 9abc
00000310: 256b 193d 1d2f 42bb 3170 91bd fd74 e4bc
00000320: 4d76 e8bc 6de3 043d bd2b 18bd 32a8 60bd
00000330: d2c8 35bd 09b6 323d 3047 84bd e792 6dbd
00000340: baf4 debb 89ce 84bc 8ec2 27bd 042f 0dbd
00000350: fc79 e1bc 5197 1c3c c494 32bd c97c 18bd
00000360: d030 e5bb d0a2 043d 6b7f 643d 3d4c 41bd
00000370: ddfa d23c dd62 55bd 5210 3abd a909 eb3c
00000380: 71b7 17bd 7312 be3c 7c0f 1a3d 0e3b 213d
00000390: df60 c93b f14f 513d 20d5 463d 0b47 30bd
000003a0: 3036 4e3d 52d5 87bd a584 8b3c 4473 843c
000003b0: 00c2 c7bc 4605 d5bc 9c72 33bc 0369 7fbd
000003c0: 8c77 29bd 08b0 703c e5b9 3d3c fab0 30bd
000003d0: 4299 423d acd2 863c d3db ffbc 4df1 95bc
000003e0: 5557 33bd 89e8 313d 69b9 273d d971 b4bc
000003f0: df33 f2bc ae0d e93b ce96 67bd 2d66 2e3d
0.024962407 0.05114031 -0.015183524 0.015201643 0.016061919 0.008686272 -0.037281513 0.032930538
-0.028880965 0.017888963 0.05012262 -0.01154655 0.04358629 0.0016280485 0.028266009 -0.016075946
0.05803647 -0.018105485 0.1042588 0.026698649 0.046534054 -0.0017726447 -0.0622805 0.017966356
0.03690883 -0.025242273 0.0033455805 0.16530362 0.29050085 0.33422527 0.106738046 0.31038633
0.48456508 0.026255865 0.19462019 0.48522657 -0.019904096 -0.023096804 0.005804745 0.01693971
0.054037943 0.058171846 -0.035955533 0.0050356705 0.019790923 0.062400736 -0.042591073 0.09147318
0.094409056 0.013954705 -0.0032301883 0.057692196 0.0009768931 -0.06383038 0.019048065 0.043089762
0.0113688195 0.08502404 0.1243645 0.06711174 0.06858295 0.03003665 0.0001528972 -0.0028540792
0.039016567 0.055468336 0.03715064 -0.037417248 0.048392892 0.052608095 0.05131598 0.030782737
0.004178304 0.062509105 0.019362412 0.09769458 0.07664226 -0.0027827502 0.03273125 0.011712137
0.02646931 -0.014475442 0.03920921 0.060630932 0.004199033 0.08692466 0.04231674 -0.02194352
0.045286782 0.08552373 0.01805715 0.029986601 0.09417949 0.07343798 0.10609259 0.089330345
0.03272788 0.07494902 -0.011587512 -0.061764576 -0.04618311 0.0010446685 0.014914486 -0.04088701
0.008297765 -0.074403636 0.020720065 0.01582801 0.03216018 0.023996977 0.05631363 0.03271803
-0.03237783 0.030177047 0.010752664 0.03355701 0.004921915 -0.011599564 0.008078707 -0.019069823
0.050194502 0.03135947 -0.05550419 -0.042846717 0.03362434 -0.06101864 -0.010205079 -0.032742996
0.022693912 -0.0035272208 0.029012436 -0.023166208 -0.04570948 -0.016815027 0.035590246 -0.007441738
-0.013831072 0.06440332 -0.0040693795 0.08790513 0.078893684 -0.01952162 0.03698418 0.0648887
-0.013348296 0.013694964 0.0063478863 -0.020442875 -0.01623459 -0.04343337 0.026040796 -0.00060358405
-0.012674921 -0.0740459 0.0011915776 0.018176038 7.162534e-05 0.08204837 0.017389335 -0.07534639
0.06253821 0.0840686 0.0089806225 -0.020277737 -0.046096765 -0.043202247 0.009747764 -0.024267517
-0.007093115 -0.041048054 -0.012248855 0.08914264 0.17427644 0.06841894 0.07804085 0.13326526
0.14448363 0.14299677 0.12448347 0.021275073 0.0070075267 0.13239397 0.1405296 0.036596578
0.05266513 0.16112193 -0.006638626 0.12937018 0.041993126 0.02683974 0.035294987 -0.029094083
-0.04318653 -0.024875054 0.055188578 -0.018868942 0.037455697 -0.0029630132 -0.07101477 -0.027887816
-0.028376723 0.032443453 -0.037151087 -0.054847904 -0.04438097 0.043630634 -0.064588904 -0.058001425
-0.006804076 -0.016211765 -0.040957026 -0.034468666 -0.027523987 0.009557561 -0.043598905 -0.03722838
-0.0069943443 0.032381833 0.055785578 -0.047191847 0.025754387 -0.052096236 -0.04542572 0.02869113
-0.037040178 0.023202157 0.037612423 0.03936296 0.006145581 0.05110163 0.048543096 -0.0430365
0.050344646 -0.066324845 0.017031023 0.016168244 -0.024384499 -0.026003491 -0.010952618 -0.062356006
-0.041373774 0.014690407 0.011579965 -0.043137528 0.04750944 0.016457878 -0.03123275 -0.018303538
-0.04378446 0.043434653 0.040948305 -0.022026943 -0.02956575 0.0071122264 -0.056540303 0.04257791

8.bias f4 [64]
00000000: e81f cd3d 170b 2cbd d979 c53d 1216 60bc
00000010: d5a4 09bd 26cf 993d a4e6 b53d c273 6bbc
00000020: 75e0 69bd 4ac6 75bd b938 57bd 0f3b 013d
00000030: a08a ef3c 54ce f43d 12e0 d23d 6a08 20bc
00000040: 2171 2c3c bb51 c5bc 50b6 7d3d cbf8 a33d
00000050: cc5a 73bd 70dc 95bc 2981 e73c 588d 74bd
00000060: ba61 77bd edef ad3c f6b9 4b3a a9e7 c53d
00000070: 5e92 533d 504c 88bd 16ea ca3d 9267 8f3d
00000080: 37bd bebc 8e91 5e3d f7dc 0cbd 7e76 6abd
00000090: 40c1 72bc 2ae5 49bd 5ce2 7ebd d573 283c
000000a0: 9ec7 1bbd 636d 683e 824f 1bbc 622d a83a
000000b0: dab1 01bd 20bc 9e3d 6cdf 0f3d ec99 953d
000000c0: c7b1 29bc 90e3 dd3d 6156 993c 011a 0bbd
000000d0: 7e4c 653d 5441 b33d ded3 503e 1998 77bd
000000e0: d524 3dbd dae7 20bd a273 1d3d daee 5dbd
000000f0: 245d 40bd 9084 d63d ed84 fe3a d109 fabc
0.10015851 -0.042002764 0.09642381 -0.013677137 -0.03360446 0.075102136 0.08881882 -0.0143708605
-0.057098825 -0.060003556 -0.05254433 0.031550463 0.029240906 0.119534165 0.10296644 -0.009767631
0.010525019 -0.024086824 0.061941445 0.08006438 -0.059412763 -0.01829359 0.02825983 -0.05970511
-0.060395934 0.02123257 0.0007771546 0.09663326 0.05165326 -0.066551805 0.099079296 0.07002176
-0.023283584 0.05433803 -0.034390416 -0.05724191 -0.014816582 -0.049290814 -0.062227592 0.010281523
-0.038032167 0.22697978 -0.009479405 0.0012830908 -0.031663753 0.07750726 0.03512518 0.07304749
-0.010357327 0.1083442 0.018717946 -0.033960346 0.05598115 0.08752695 0.20393321 -0.060447786
-0.046177704 -0.03928361 0.038440354 -0.054182865 -0.046963826 0.10474503 0.0019418277 -0.030522259

10.weight f4 [2, 64, 1, 1]
00000000: b317 01be cb2d 7e3d f0bb 9e3d 8a75 bc3d
00000010: d440 77bd ac33 12be f817 28be 6857 c9bd
00000020: 4748 6abd c4a8 9e3d 9704 9abd 27ef 723e
00000030: 7c21 5d3e de07 d33d 9c42 e9bb a9d7 c33d
00000040: 5797 00be c0cb 10bc dca6 b23d 0e9c 7c3d
00000050: 65a8 8e3c ae96 8e3d 89f0 d93d dee9 49bb
00000060: a72d 77bd 0fa7 e43d c096 843d 37d3 23be
00000070: 42a4 bfbd c3e9 0b3d 7fce e03d c3d3 0d3e
00000080: 0dab f2bd d612 3bbd 9885 67bc d59a 92bc
00000090: 3e32 713b a961 453d 1f0c 133d 9900 0dbe
000000a0: f016 b13c 60ba ef3c 8b3a 583d 36b1 033d
000000b0: 54e2 903d 58cd dcbd 1436 0cbe 1da6 d53d
000000c0: 26c4 f5bd 63d5 93bd 5d22 ebbd 07ee 5bbd
000000d0: 8291 07be f238 a43d e1d0 603d 11d3 763d
000000e0: 7f3e 70bd 4510 09bb a81d 2cbd 86db fabd
000000f0: d47e 5a3d ef8a b93d c50d 4c3e 5a22 bc3c
00000100: dab1 f5bd 2871 453d 9f5b 443e c858 e3bd
00000110: 85e7 c1bb 4e7c 35be e433 53bd 4f8c bbbd
00000120: 2c92 2cbd e762 e53d 0d81 c33c 3cec 54bc
00000130: d3da 0cbd 8b75 4f3e 8078 d9bd 8696 e5bd
00000140: 94d0 ca3d 89a6 4cbd b5cb 11be 25e6 ef3d
00000150: 5ce2 e5bc 0f17 d13d 535e 123e 42f9 3abd
00000160: 2649 e43d 2a3b 993d 02a7 383d 4d3e 0ebd
00000170: cdb2 e83d 4a61 6abd 8f37 48be a0d8 eb3c
00000180: 8d2b 5f3a 97fd 2dbd c049 5e3d acd0 9bbd
00000190: 217c b1bd 0499 e2bd 9c92 45bd f635 823d
000001a0: bbf7 8d3d c949 583e 629b 3c3e 3277 c33d
000001b0: 3702 e0bd 36b1 e6bd 28a9 ccbd 0e7f b03d
000001c0: b648 dc3b d48a 4cbe e5c4 9fbd c47d b9bd
000001d0: d52e 9e3d c5cb 8c3d c72c 063e adcc c0bc
000001e0: 46c0 f13c a0ba 1e3d 2704 b2bd 4cfb dabd
000001f0: f037 ae3c 30dc 1b3e dcd1 ff3d cb6a adbd
-0.12606697 0.06205539 0.0775069 0.09202106 -0.06036456 -0.14277524 -0.16415393 -0.098311245
-0.057197835 0.07747033 -0.07520407 0.23724042 0.21594805 0.10304235 -0.007118536 0.09562618
-0.12557732 -0.00883764 0.08723232 0.061672263 0.017414281 0.069623336 0.106415816 -0.0030809562
-0.06034627 0.111646764 0.06474066 -0.15998541 -0.093575016 0.03415848 0.10976886 0.13850312
-0.118490316 -0.04567226 -0.014130972 -0.017896095 0.0036803628 0.04818884 0.03590023 -0.13769759
0.021617383 0.029263675 0.052790206 0.032151423 0.07074419 -0.10781354 -0.13692504 0.10432074
-0.12000303 -0.07218435 -0.11481164 -0.053693797 -0.132391 0.08018674 0.054886702 0.060259882
-0.05865335 -0.0020914238 -0.04202047 -0.12248902 0.05334361 0.090597026 0.19927128 0.022965599
-0.11996813 0.048203617 0.19175576 -0.11100918 -0.005917492 -0.177232 -0.05156316 -0.09157621
-0.042131588 0.11200505 0.023865247 -0.012995776 -0.034388375 0.20259683 -0.10618687 -0.11210351
0.09903064 -0.049963508 -0.14237864 0.117138185 -0.028062038 0.10209476 0.14293794 -0.045647867
0.111467645 0.07481988 0.045081146 -0.034727383 0.113622285 -0.05722169 -0.19552444 0.028789818
0.00085132645 -0.04247817 0.054269552 -0.076081604 -0.08666254 -0.11064342 -0.04823552 0.063579485
0.069320165 0.21121897 0.18418649 0.09544219 -0.109379224 -0.11264269 -0.099932015 0.08617984
0.006722535 -0.19974834 -0.078012265 -0.09057191 0.07723776 0.068748035 0.13103019 -0.023535097
0.029510628 0.0387522 -0.08692198 -0.10692462 0.021266907 0.15220714 0.124911994 -0.08467635

10.bias f4 [2]
00000000: 4d23 cc3d c719 17bd
0.099676706 -0.036889818
